taskA3/best_model_weights_fold_1.pth (torch, 429208 bytes, 7 tensors)

hidden1.weight f4 [100, 1000]
0	0xbccf90d1	-0.025337609
1	0x3a8f5e52	0.0010938144
2	0xbbcc2125	-0.006229537
3	0x3c3bab60	0.011454433
4	0x3cf065b7	0.029345376
5	0x3c94dc51	0.018171461
6	0xbbc3f0b0	-0.00597962
7	0x3cae2a97	0.021260543
8	0x3c9ac197	0.018891139
9	0xbccb2b31	-0.024800869
10	0x3b73007f	0.0037079153
11	0x3c15de8f	0.0091473
12	0xbc41cf29	-0.011829176
13	0x3c8d3d9d	0.017241294
14	0xbcd10a0d	-0.025517488
15	0x3b21e2f5	0.0024701927
16	0x3b94bab6	0.0045388592
17	0x3bbfcbe4	0.005853163
18	0xbc81652e	-0.015795317
19	0xbb67f1b7	-0.0035391876
20	0x3a723e1b	0.0009240822
21	0xbb91a156	-0.0044442816
22	0xbc26a2b0	-0.010170624
23	0xbd014d8a	-0.031568088
24	0xbc982c8a	-0.018575925
25	0xbab30bc8	-0.0013660127
26	0x3c28a230	0.010292575
27	0xbc92177b	-0.017833462
28	0x3c76c16d	0.015060765
29	0xbcfe8d58	-0.031073257
30	0x3c8ef38c	0.017450117
31	0x3c5f004e	0.0136109125
32	0xbc727192	-0.014797585
33	0xbca84df4	-0.020544983
34	0x3c697977	0.014250151
35	0xbc8a5875	-0.016887883
36	0x3cdc9589	0.026926773
37	0x3a03df2a	0.00050305075
38	0x3cc0ade0	0.02352041
39	0x3cca3bc4	0.024686702
40	0x3cd865c3	0.026415711
41	0x3cdecb2c	0.02719649
42	0x3c04682a	0.008081475
43	0x3cca4728	0.024692133
44	0x3ca4fafe	0.020139214
45	0xbcb914d9	-0.022592949
46	0x3ce2196f	0.027600018
47	0x3b88fccc	0.0041805264
48	0xbcc23f2a	-0.02371176
49	0xbcf87471	-0.030328961
50	0xbc43ae47	-0.011943406
51	0x3c1153c4	0.008870069
52	0x3a39b733	0.0007084489
53	0xbcdf0d26	-0.02722795
54	0x3b817877	0.003951128
55	0xbc2a194b	-0.010382007
56	0x3c08fa18	0.008360408
57	0xbc828d8f	-0.015936641
58	0xbc00a61c	-0.007852104
59	0xbb9877f6	-0.0046529723
60	0xbcbfeabd	-0.023427362
61	0x3cb22c67	0.021749688
62	0x3bb80ef8	0.005617019
63	0xbc920291	-0.01782349
64	0x3bda5cc0	0.0066638887
65	0xbcad4358	-0.021150276
66	0xbceb509a	-0.028724957
67	0xbcfae4fc	-0.030626766
68	0x3c5655a8	0.0130819455
69	0xbc756fb2	-0.0149802435
70	0xbcbc96d9	-0.023021149
71	0xbcbee1e3	-0.02330107
72	0xbaf7c42e	-0.0018903071
73	0xbc4f2c37	-0.012644819
74	0x3a6673f7	0.0008791084
75	0x3c0e4028	0.008682288
76	0x3c6dde28	0.014518298
77	0x3d128f81	0.035781387
78	0xbbf0612a	-0.0073358016
79	0xbc958f11	-0.018256696
80	0xbb375a71	-0.0027977491
81	0x3c287696	0.010282179
82	0x3c1c6d70	0.009547576
83	0x3cc9ada0	0.024618924
84	0x3c681a45	0.014166419
85	0xbccceae1	-0.025014343
86	0x3b55e8a9	0.0032639897
87	0x3c894b97	0.016759677
88	0x3cb4bd5c	0.02206295
89	0xbc994b6e	-0.018712725
90	0xbc86e81e	-0.016468104
91	0x3aa77e89	0.0012778799
92	0x3c895667	0.016764833
93	0x3cc10b83	0.02356506
94	0x3cb6b6b1	0.02230391
95	0x3b2f5983	0.0026756234
96	0x3cfc0881	0.030765774
97	0x3a33df18	0.00068615517
98	0x3c0421bd	0.008064684
99	0x3b975e3b	0.0046193874
100	0xbc92e1cd	-0.017929936
101	0x3caf245a	0.021379638
102	0xbbc7a017	-0.0060920822
103	0x3cb3a99d	0.021931464
104	0x3b3a7d48	0.002845602
105	0x3c8f281a	0.017475177
106	0xbcaaec12	-0.02086452
107	0x3bbc31b9	0.005743232
108	0xbc2b966c	-0.010472875
109	0x3cd4410b	0.025909921
110	0x3c79593b	0.015219028
111	0x3b772622	0.0037711938
112	0x3bbfa66b	0.005848696
113	0x3bf1da31	0.007380747
114	0x3ce7f140	0.02831328
115	0x3ccc4371	0.024934502
116	0x3c8095b0	0.015696377
117	0xbb83b620	-0.0040195137
118	0xbca2d5e7	-0.019877387
119	0xbae92f57	-0.0017790598
120	0xbc89648c	-0.016771577
121	0xbca40567	-0.020022107
122	0xb982f302	-0.00024976587
123	0x3ca428ca	0.020038981
124	0x3b4dfc74	0.0031430991
125	0xbc818c1a	-0.015813876
126	0xbb40652a	-0.0029357173
127	0xbccd0480	-0.02502656
128	0x3ce91f44	0.028457291
129	0x3be30632	0.006928229
130	0x3c1eb684	0.00968707
131	0xbcf267d8	-0.029590532
132	0x3ce2f656	0.027705353
133	0xbcc8b2ed	-0.024499381
134	0x3cf811e4	0.030281968
135	0x3c2e9957	0.010656676
136	0x3c91c6a6	0.017794918
137	0x3ca4cc21	0.020116867
138	0x3aacc0fc	0.0013180072
139	0x3bf8cb0d	0.007592565
140	0xbc528c9d	-0.012850908
141	0xbc8aed71	-0.016958924
142	0xbc0ef406	-0.008725172
143	0x3c8f305e	0.017479118
144	0x385e164b	5.2949687e-05
145	0xbbe98079	-0.007125911
146	0x3cf92975	0.030415276
147	0x3c76408c	0.015030038
148	0xbc59f775	-0.013303627
149	0x3c0c22e8	0.008553244
150	0x3966091c	0.00021937903
151	0xbcea2f4e	-0.02858701
152	0x3ba452ea	0.005014767
153	0x3be05239	0.006845739
154	0x3bf718a4	0.007540779
155	0xba1abe72	-0.00059030124
156	0x3cc99f40	0.02461207
157	0x3cd1d27e	0.025613066
158	0xb9d7f759	-0.00041192284
159	0x3ca2f341	0.019891383
160	0xbccd33cd	-0.025049115
161	0x3ce92ea6	0.028464627
162	0xbbe8ab03	-0.0071004643
163	0x3cfab529	0.030603962
164	0xbc563f6d	-0.013076645
165	0xbcfe2691	-0.03102425
166	0x3c957a1e	0.018246707
167	0x3c16eb8c	0.009211432
168	0x3b07fe5f	0.0020750982
169	0xbb6490ce	-0.003487635
170	0x3c1985db	0.009370293
171	0xbbaecb4e	-0.0053342944
172	0x3cb2c9f6	0.021824818
173	0xbb7207e7	-0.003693098
174	0x3c96a127	0.01838739
175	0x3bd2398b	0.006415551
176	0xbc99016f	-0.018677441
177	0xbc14bf28	-0.009078778
178	0x3c1146a1	0.008866937
179	0xbcf52468	-0.029924586
180	0xbcb47cd5	-0.02203218
181	0x3aadd9c1	0.0013263748
182	0xbceca61b	-0.028887799
183	0x3ccb315b	0.024803808
184	0xbb93d678	-0.0045116507
185	0xbcbdb411	-0.023157151
186	0xbc30646f	-0.010766133
187	0x3c6037ac	0.013685148
188	0x3ca8264d	0.020526076
189	0xbc2c1647	-0.010503358
190	0xbc813226	-0.015770983
191	0x3c66e322	0.014092239
192	0xbc538af3	-0.012911546
193	0xbc984e64	-0.018592067
194	0x3c49d8bd	0.012319741
195	0xbc9a9958	-0.018871948
196	0xbcb9b04b	-0.02266707
197	0x3c3c1cfa	0.011481518
198	0xbc2e2bca	-0.010630557
199	0x3b906981	0.0044071083
200	0xbbe45ebc	-0.006969301
201	0x3bdb4310	0.006691344
202	0x3c171225	0.009220635
203	0xbc8ee61b	-0.017443707
204	0x3cbc93ac	0.023019634
205	0xbc729dd9	-0.014808142
206	0xbbc619db	-0.0060455627
207	0xbbe6eb8c	-0.0070471223
208	0xbbde97b7	-0.006792988
209	0xbcdbe80c	-0.026844047
210	0xbcb0965f	-0.021556078
211	0x3c9875bc	0.018610828
212	0xbc345e6a	-0.011008838
213	0xb79ec728	-1.8927807e-05
214	0x3bc9429c	0.0061419737
215	0xbc1e9733	-0.009679603
216	0xbb2446b9	-0.0025066568
217	0x3cd55c39	0.026044952
218	0x3ca1117f	0.019661663
219	0xbc342a91	-0.010996477
220	0xbc3045ec	-0.010758858
221	0x3cadea2e	0.02122983
222	0xbc2a7946	-0.01040489
223	0xbcc0265b	-0.02345579
224	0xbc85d562	-0.0163371
225	0xbcfaaeab	-0.030600866
226	0x3be4bd41	0.0069805686
227	0x3b648786	0.0034870817
228	0x3cd894cf	0.026438145
229	0x3b89307f	0.0041866894
230	0xbc8c28bd	-0.01710927
231	0xba8ff6c1	-0.0010983573
232	0x3cc4ddb4	0.024031498
233	0xbc826f33	-0.015922165
234	0x3cabc6ac	0.020968758
235	0x3c1f7d1f	0.009734421
236	0xbcf4a390	-0.029863149
237	0x3cfdcd7b	0.03098177
238	0xbc64fce1	-0.013976307
239	0x3aaf2551	0.0013362562
240	0x3cf98a4e	0.030461457
241	0xbcf7ba4b	-0.030240199
242	0x3c976404	0.018480308
243	0x3a94d527	0.0011355028
244	0xbc7d8a19	-0.01547482
245	0xbce0958c	-0.02741506
246	0x3af12350	0.0018397365
247	0x3bc0881e	0.0058756014
248	0xbcb46cda	-0.02202456
249	0xbcb1742c	-0.02166184
250	0x3c549bca	0.012976596
251	0x3ad66013	0.0016355537
252	0xbc4a7690	-0.012357369
253	0x3c10b392	0.008831875
254	0xbcacf4bb	-0.02111279
255	0x3c5991e4	0.013279412

hidden1.bias f4 [100]
0	0xbcc55845	-0.024089942
1	0xbcdbefc1	-0.026847722
2	0x3cc379ed	0.02386185
3	0xb98a5043	-0.0002638121
4	0x3d58c0e9	0.05291835
5	0x3d0d241c	0.034458265
6	0xb9330387	-0.00017072084
7	0xbc85e03e	-0.016342279
8	0x3c14d14c	0.009083103
9	0x3c842106	0.016129028
10	0x3c740593	0.014893907
11	0xba3875f8	-0.00070366217
12	0x3b63257b	0.0034659791
13	0x3c728ec3	0.014804545
14	0xbc8af79e	-0.016963776
15	0xbaa43ad9	-0.0012529745
16	0xbc358df7	-0.01108121
17	0x3cc46121	0.023972096
18	0xbca8b8a8	-0.020595863
19	0xbb97178a	-0.0046109604
20	0x3ca03679	0.019557225
21	0xbc11bf37	-0.008895687
22	0xbc29eb5b	-0.0103710545
23	0xbd0a1480	-0.033710957
24	0x3c4c4fde	0.012470214
25	0x3d120033	0.03564472
26	0xba8af897	-0.001060265
27	0xbca01abe	-0.019544002
28	0x3d4fa2d2	0.050692387
29	0x3cd6cdc5	0.026221165
30	0x3bc5d9fb	0.006037948
31	0x3d0665bd	0.03281187
32	0x3d2dbf7d	0.042418946
33	0xbcccb964	-0.024990745
34	0xbcb74043	-0.02236951
35	0x3d768f31	0.06019515
36	0x3d0dcf8f	0.03462177
37	0x3d2491bb	0.040178042
38	0xba2d5498	-0.0006612032
39	0xbc85bdc7	-0.016325844
40	0xbcafec76	-0.021475058
41	0x3c95e652	0.018298302
42	0xbc92dad4	-0.017926611
43	0x3ca196ba	0.019725192
44	0xbc86ba74	-0.01644633
45	0xbc0aa591	-0.008462326
46	0x3c7c63aa	0.015404621
47	0x3ca67844	0.020321019
48	0xbccc4d02	-0.024939064
49	0xbc2f34fc	-0.010693785
50	0x3d8b9524	0.06815556
51	0xbc9335fc	-0.017970078
52	0x3c935c79	0.01798843
53	0xbce9cccc	-0.028540038
54	0x3b45f436	0.0030205376
55	0x3cf0cebb	0.029395452
56	0xbc7c2770	-0.015390262
57	0xbbbeada6	-0.0058190404
58	0xbc142e05	-0.009044175
59	0xb8a6caf2	-7.953298e-05
60	0x3cd76c9f	0.026296912
61	0x3cd94bc1	0.02652538
62	0x3cd430fc	0.025902264
63	0xbaa06662	-0.0012237544
64	0x3d119162	0.03553904
65	0x3cf8ec1c	0.030386023
66	0xbaf3212e	-0.0018549317
67	0x3d004dc3	0.03132416
68	0xbca2ee3f	-0.019888995
69	0x3ce7139d	0.028207595
70	0xbc2e5078	-0.010639302
71	0xbc2e03cb	-0.0106210215
72	0x3be5f2c6	0.0070174662
73	0x3cab6c58	0.020925686
74	0x3d1c246d	0.038120676
75	0xb915269d	-0.00014224132
76	0xb9e1992e	-0.00043029472
77	0xbd07172c	-0.032981083
78	0x3d1f13e0	0.038837314
79	0x3b61860f	0.003441218
80	0xbce5f764	-0.028072067
81	0x3d18faa0	0.03734839
82	0x3caa586e	0.02079412
83	0xbbbc85e3	-0.005753265
84	0x3cf5b549	0.02999367
85	0xb9a92114	-0.00032258837
86	0x3b8cd096	0.0042973263
87	0x3cf41a52	0.029797707
88	0xbcb014fd	-0.021494383
89	0x3d3e3c97	0.0464445
90	0x3ccb453e	0.02481329
91	0xbc55ba6e	-0.013044937
92	0x3d5a6add	0.05332457
93	0xbc3f3e98	-0.011672638
94	0x3ce52fec	0.027976952
95	0xba079e47	-0.00051734265
96	0x3d7fb06b	0.062424105
97	0x3d1699d1	0.036767785
98	0xbcf0943e	-0.029367562
99	0x3cd2c730	0.025729746

hidden2.weight f4 [50, 100]
0	0x3daad5e8	0.08341581
1	0xbd4320a3	-0.047638547
2	0x3d9a66b0	0.07539117
3	0x3bc79a4d	0.006091392
4	0x3d9597b3	0.07304325
5	0xbc79735a	-0.015225256
6	0x3d37e68a	0.044897594
7	0xbc93d6c0	-0.018046737
8	0xbd5aae93	-0.053389143
9	0x3d1ee42a	0.038791813
10	0xbd1ecae3	-0.038767707
11	0x3bb9ff4d	0.005676186
12	0x3ca79833	0.020458316
13	0x3cbde14d	0.02317872
14	0x3d20cc17	0.039257135
15	0xbc5db827	-0.013532675
16	0xbcbfebc0	-0.023427844
17	0xbd6472b3	-0.05577345
18	0x3c7d4e33	0.015460539
19	0x3d061663	0.032736193
20	0x3d9ad370	0.0755986
21	0x3c4edb67	0.012625552
22	0x3d2059e0	0.03914821
23	0x3d8994fa	0.06717868
24	0x3d233d4d	0.039853383
25	0xbd80e3d2	-0.06293453
26	0x3bcefe00	0.0063169003
27	0x3d3d5160	0.046220183
28	0xbdad4738	-0.084608495
29	0x3daab607	0.083355
30	0x3d2cd110	0.042191565
31	0x3da43617	0.08018129
32	0xba71099a	-0.0009194851
33	0xbdbb0b03	-0.0913296
34	0x3d1f4100	0.03888035
35	0x3b1aeb67	0.0023638846
36	0xbd926862	-0.07148816
37	0x3d9b15aa	0.075724915
38	0xbd858a8d	-0.06520567
39	0xbda4e417	-0.08051317
40	0x3dbf36b0	0.09336603
41	0xbd5bcfb0	-0.053664863
42	0xbce91093	-0.028450286
43	0x3d8ea19d	0.06964419
44	0x3d047603	0.032339107
45	0x3d677f2d	0.05651777
46	0x3d005630	0.031332195
47	0xbd9c9d45	-0.07647184
48	0xbb196233	-0.0023404479
49	0xbd7b6007	-0.061370876
50	0xbcec694d	-0.028858805
51	0xbd3173d0	-0.043323338
52	0xbd19aa0d	-0.03751569
53	0xbdbf0032	-0.09326209
54	0x3c172ea7	0.009227431
55	0xbd864b7d	-0.06557367
56	0xbd02ae7d	-0.031904686
57	0x3d56579d	0.05232965
58	0xbb9d3633	-0.004797721
59	0x3d08c9a7	0.033395436
60	0xbbf45880	-0.007456839
61	0xbda7d30a	-0.081945494
62	0x3d796493	0.06088693
63	0xbd8d12cf	-0.06888353
64	0xbd57984d	-0.05263548
65	0x3cee911a	0.029121924
66	0xbdc4c285	-0.09607414
67	0xbd32c340	-0.043643236
68	0x3cbf2ee0	0.023337781
69	0x3dc8acea	0.09798606
70	0x3d8b0877	0.06788724
71	0x3d2d704a	0.042343415
72	0x3d85a3e7	0.065254025
73	0xbd17982d	-0.03701036
74	0x3d1e14f0	0.038594186
75	0x3da5c558	0.08094281
76	0x3db9a198	0.09064025
77	0xbd024950	-0.031808197
78	0xbca96d33	-0.020681953
79	0xbd315773	-0.04329629
80	0x3dc90a77	0.09816449
81	0x3d849265	0.06473235
82	0xbb5b7400	-0.003348589
83	0xbd9f9c0d	-0.07793436
84	0x3d8ac1e8	0.06775266
85	0xbcad37d3	-0.021144783
86	0x3a7c6c00	0.00096291304
87	0xbd8d52f8	-0.06900591
88	0x3d599753	0.05312283
89	0xbd8a17e7	-0.0674284
90	0x3db2577b	0.08708092
91	0xbdbd2b7b	-0.09236809
92	0x3ca5fdc7	0.020262612
93	0x3dacacdb	0.08431407
94	0xbcf3f4a7	-0.029779745
95	0xbd6ac3ea	-0.057315744
96	0xbd617b03	-0.055048954
97	0xbd198530	-0.037480533
98	0x3d5b8237	0.05359098
99	0xbda38953	-0.07985177
100	0xbd02ccfa	-0.031933762
101	0x3d3486c2	0.044073828
102	0x3d128fde	0.035781734
103	0x3c48e53e	0.012261687
104	0x3d0c746d	0.03429072
105	0xbda47b53	-0.08031335
106	0x3d0c717b	0.03428791
107	0xbce00b1e	-0.027349051
108	0x3da915ad	0.082560875
109	0x3cd08f2c	0.025458895
110	0xbbd90369	-0.006622721
111	0xbd9cdfbc	-0.076598614
112	0x3d1c6305	0.03818037
113	0x3ceb6106	0.028732788
114	0x3c5151be	0.0127758365
115	0x3ca76420	0.020433486
116	0x3c2989b0	0.010347769
117	0xbdb83ca1	-0.08995939
118	0xbc975241	-0.018471839
119	0xbcc46f5b	-0.02397888
120	0x3c966795	0.018359939
121	0x3ccc756a	0.024958331
122	0x3cbd715e	0.023125347
123	0xbd0089fa	-0.031381585
124	0xbda926e3	-0.0825937
125	0xbd28c150	-0.041199982
126	0x3da16a39	0.078815885
127	0x3d29821f	0.04138386
128	0x3c9700e5	0.018433044
129	0xbb2f30df	-0.002673201
130	0xbd8e9298	-0.06961554
131	0xbd8f10f3	-0.06985655
132	0x3d8f6e15	0.07003418
133	0xbd58031a	-0.052737333
134	0x3d0e09c1	0.03467727
135	0x3d939827	0.07206755
136	0xbd47f557	-0.04881796
137	0x3b2b1930	0.0026107542
138	0x3c5f0ebe	0.013614355
139	0x3cf99c6f	0.030470101
140	0xbdc3843d	-0.09546707
141	0xbda8a91f	-0.08235382
142	0x3db7cea4	0.089749604
143	0x3bb21178	0.0054342113
144	0xbbdbb2e5	-0.0067046755
145	0xba7ea800	-0.0009714365
146	0xbd9de9bd	-0.07710598
147	0x3cd381e2	0.025818769
148	0xbd906833	-0.070511244
149	0xbdbb899f	-0.091571085
150	0xbdd2dcf6	-0.10296051
151	0x3c420d25	0.011843954
152	0x3c369d5e	0.011145918
153	0x3d8bcd17	0.06826227
154	0x3d991ea9	0.07476551
155	0x3cf428a0	0.029804528
156	0xbd43dbec	-0.047817156
157	0x3cf72909	0.030170934
158	0xbd636e6d	-0.055525232
159	0xbcb0e1b4	-0.021591999
160	0xbd8a0a85	-0.06740288
161	0xbda0339e	-0.07822345
162	0xbd85fce4	-0.06542376
163	0x3d20d0fe	0.03926181
164	0x3c52010a	0.012817631
165	0x3d6a39c8	0.05718401
166	0xbda38dec	-0.07986054
167	0xbd97cae8	-0.07411748
168	0x3b75aabf	0.0037485806
169	0x3d9e3fec	0.07727036
170	0x3d133231	0.035936538
171	0x3d3199f7	0.043359723
172	0xbd12e23d	-0.03586029
173	0x3d8de733	0.069288634
174	0x3d844a5a	0.06459494
175	0xbdda2784	-0.10652068
176	0xbcfb9e07	-0.030715002
177	0x3d85d30b	0.06534394
178	0x3dc4eeb5	0.09615842
179	0xbd85e665	-0.06538085
180	0xbd162587	-0.036656883
181	0xbd57ac3d	-0.052654494
182	0xbda54f13	-0.08071723
183	0x3dce27d0	0.100661874
184	0x3dcef6b8	0.101056516
185	0x3d091487	0.033466842
186	0x3d6e4372	0.05816979
187	0x3d8f13d1	0.069862016
188	0x3da1404e	0.07873593
189	0x3d679c2c	0.05654542
190	0x3da78887	0.081803374
191	0x3d805102	0.06265451
192	0x3dd8b508	0.10581404
193	0x3b440741	0.002991155
194	0x3c5f1422	0.01361564
195	0x3c01d98f	0.007925405
196	0xbbe20664	-0.0068977345
197	0xbca4b0b1	-0.020103784
198	0x3b1b83ca	0.0023729675
199	0x3d861e79	0.06548781
200	0x3c9e6adb	0.019338062
201	0xbceca909	-0.028889196
202	0x3d4e7341	0.050402883
203	0xbd5203af	-0.051273044
204	0xbe038233	-0.12842636
205	0xbce0031e	-0.027345236
206	0x3d99b54b	0.07505282
207	0xbd0751ea	-0.033037104
208	0x3d157587	0.036489036
209	0x3dcb872d	0.09937892
210	0xbc4b2630	-0.012399241
211	0xbdc6ff99	-0.0971672
212	0x3d8b47dd	0.06800816
213	0xbc456e7e	-0.012050269
214	0x3dd7f58c	0.10544881
215	0xbdde8564	-0.10865286
216	0x3cf8b622	0.030360285
217	0xbda40108	-0.08008009
218	0xbcad6d37	-0.021170242
219	0xbd6a1f59	-0.0571588
220	0xbdd3798f	-0.1032592
221	0xbc92a5c5	-0.01790131
222	0xbc879765	-0.016551683
223	0x3d2eecac	0.042706177
224	0xbd9a66fa	-0.075391725
225	0x3c672cb7	0.014109782
226	0x3dbc8282	0.0920458
227	0x3c939c39	0.018018829
228	0xbdeab88d	-0.114609815
229	0xbd9730e3	-0.07382371
230	0xbdd04300	-0.10169029
231	0xbdde3052	-0.1084906
232	0x3c81d64d	0.015849257
233	0xbd0c00cd	-0.03418045
234	0xbc2391f1	-0.009983526
235	0x3d332fec	0.043746874
236	0x3db25682	0.08707906
237	0x3df7dbe2	0.12102486
238	0xbdb20820	-0.08692956
239	0xbcc92852	-0.024555359
240	0x3d40e6c6	0.047095083
241	0xbda4d0e0	-0.08047652
242	0x3d302d0f	0.04301172
243	0x3d94fad5	0.07274405
244	0x3d3551fe	0.044267647
245	0xbcdde6b8	-0.027087554
246	0xbde404e5	-0.11133746
247	0x3d9b77a5	0.0759118
248	0x3d10030d	0.03515916
249	0xbbd8ab3f	-0.006612211
250	0xbd3d07b3	-0.04614992
251	0x3d7af281	0.061266426
252	0x38a531d6	7.877096e-05
253	0x3c086d79	0.008326882
254	0x3b96b59d	0.0045992867
255	0x3cedd09f	0.029030142

hidden2.bias f4 [50]
0	0xbd1249c7	-0.03571489
1	0x3cd39f29	0.02583273
2	0x3dc6f033	0.09713783
3	0x3d04adce	0.032392316
4	0x3cdfc969	0.02731772
5	0x3d1526c3	0.03641392
6	0x3ccbf6ed	0.024898017
7	0x3be5f50e	0.007017738
8	0xbcbf4309	-0.023347395
9	0x3da4f48d	0.08054457
10	0x3d14cdbe	0.036329024
11	0xbdc51cd5	-0.0962464
12	0xbda1dcc2	-0.07903434
13	0x3d166147	0.036713865
14	0xbd9eb543	-0.07749417
15	0x3d53baa4	0.051691666
16	0xbd77eeed	-0.06053059
17	0x3dbb66fd	0.09150503
18	0x3ce7681a	0.028247882
19	0x3d76fd38	0.060300082
20	0x3dc9f7c8	0.09861714
21	0xbdc47c15	-0.09593979
22	0xbb006a09	-0.0019594452
23	0xbdc1f5d3	-0.094707154
24	0xbd324bf7	-0.043529477
25	0xbd6cce23	-0.057813775
26	0x3d0b0224	0.03393759
27	0x3cfaaa46	0.03059877
28	0x3da946a9	0.082654305
29	0x3d13d070	0.036087453
30	0x3cdd74ac	0.027033173
31	0x3de4b8ca	0.11168058
32	0x3d64a287	0.05581906
33	0xbdcc3938	-0.09971851
34	0xbcd17491	-0.025568279
35	0x3d24d1f8	0.040239304
36	0x3d7f8074	0.06237836
37	0x3cdf56b5	0.027263025
38	0x3dbf503b	0.093414746
39	0x3b9953d3	0.004679182
40	0x3cef8835	0.029239753
41	0xbdcc10ca	-0.0996414
42	0x3d895e1d	0.06707404
43	0xbd6c5853	-0.05770142
44	0xbd1570ed	-0.036484648
45	0xbccf79f6	-0.02532671
46	0x3d4bd75b	0.049765926
47	0x3ce0e58d	0.027453208
48	0x3d9c8609	0.07642753
49	0xbb1a87c3	-0.0023579455

hidden3.weight f4 [25, 50]
0	0x3df507b4	0.1196436
1	0x3d81668a	0.06318386
2	0xbcdb6d2b	-0.026785454
3	0x3d9869c4	0.07442048
4	0xbd50ec18	-0.051006407
5	0xbdca7b2c	-0.098867744
6	0x3de0c375	0.109747805
7	0x3cefb080	0.029258966
8	0xbd8bccf3	-0.068262
9	0xbd5699a3	-0.052392613
10	0x3d102107	0.035187747
11	0xbd947002	-0.07247926
12	0xbdba8c7e	-0.09108828
13	0xbde26dde	-0.11056112
14	0xbdf28098	-0.118409336
15	0x3de9c2c7	0.11414104
16	0xbd7a0632	-0.061041065
17	0x3dad6308	0.08466154
18	0xbd4dd54d	-0.050252248
19	0xbdbffdb9	-0.09374566
20	0x3dda5d5f	0.106623404
21	0x3debef87	0.115202956
22	0xbdba9088	-0.091095984
23	0xbd478002	-0.048706062
24	0xbd813a88	-0.06309992
25	0x3df65e7b	0.120297395
26	0xbdcfadde	-0.101405844
27	0x3e038f42	0.12847617
28	0x3c93fd43	0.0180651
29	0x3d99e16a	0.075136974
30	0xbd0db365	-0.034594912
31	0xbd3e8e8e	-0.04652267
32	0x3ca0adf6	0.019614201
33	0x3d27786b	0.040886324
34	0x3de9ea84	0.114216834
35	0xbe0ebddd	-0.13939615
36	0xbd9c14d2	-0.07621159
37	0xbb2bd687	-0.0026220398
38	0x3befe92d	0.007321498
39	0xbdb56b9d	-0.08858416
40	0x3ca5e226	0.020249438
41	0x3df58e6f	0.11990058
42	0xbe06fee1	-0.13183166
43	0xbd3cbae9	-0.04607669
44	0xbd86de9a	-0.06585427
45	0x3de59fe7	0.112121396
46	0xbdd24e16	-0.102688
47	0xbdc6cd85	-0.097071685
48	0xbd1f03e0	-0.038822055
49	0xbdb656a6	-0.08903246
50	0xbdfbbb2b	-0.12291559
51	0x3d907b18	0.07054728
52	0x3d683da6	0.056699418
53	0xbd97b834	-0.07408181
54	0xbdcfd6a0	-0.10148358
55	0xbddaf24e	-0.10690747
56	0x3d2f4b91	0.042796675
57	0xbdecec3d	-0.115684964
58	0x3d831729	0.06400902
59	0x3dca5cbf	0.09880971
60	0x3e0b601f	0.13610886
61	0xbdcae799	-0.09907455
62	0x3d462bcd	0.048381615
63	0x3dcb3b69	0.09923441
64	0x3d35dad6	0.04439815
65	0xbd4dfbdf	-0.05028903
66	0x3e0b4760	0.13601446
67	0x3dd42e30	0.10360372
68	0xbcbeee77	-0.023307068
69	0xbc268651	-0.010163859
70	0x3db6d46d	0.08927236
71	0xbd9348b4	-0.071916014
72	0xbb80badf	-0.003928527
73	0xbddc15b5	-0.10746328
74	0x3d87abb5	0.066245474
75	0x3dc8343e	0.097755894
76	0xbd9cb555	-0.07651774
77	0x3c3f9081	0.011692167
78	0x3e121c4a	0.14268604
79	0x3d9291a4	0.07156685
80	0xbdc18ca3	-0.094506525
81	0xbdf68749	-0.12037522
82	0x3dba0b71	0.090842135
83	0xbdce6ae3	-0.10078981
84	0xbd4ede70	-0.0505051
85	0xbdb3a2f9	-0.08771319
86	0xbd9c4e92	-0.076321736
87	0x3d6ee91b	0.058327775
88	0x3d6d56e7	0.057944205
89	0x3d485bba	0.048915602
90	0x3d767bb6	0.060176574
91	0x3d6a84e7	0.05725565
92	0x3dae4aaa	0.08510335
93	0x3d0bdbaa	0.034145035
94	0x3ddca972	0.10774507
95	0xbdf3e231	-0.11908377
96	0x3d3c12a4	0.045916215
97	0x3d8dc222	0.069217935
98	0xbd4a762f	-0.049429115
99	0x3ce6e398	0.028184697
100	0xbd63af54	-0.055587128
101	0x3d3dc196	0.046327196
102	0x3e08d787	0.13363467
103	0x3dfdbbbe	0.123893246
104	0x3d959e90	0.07305634
105	0x3d2c1b7d	0.042018402
106	0xbdad423d	-0.084598996
107	0xbdb8f752	-0.090315476
108	0xbcb8af6d	-0.022544587
109	0x3daf3521	0.085550554
110	0x3ca5d465	0.02024288
111	0xbd728705	-0.059210796
112	0x3d263338	0.04057619
113	0x3e07b8ea	0.13254133
114	0x3d91e051	0.07122863
115	0xbe0931b4	-0.13397866
116	0x3cbc2909	0.022968786
117	0xbde0dbf5	-0.109794535
118	0xbda09a86	-0.07841973
119	0x3ddfc50e	0.10926257
120	0x3da26a5c	0.07930443
121	0xbb4c898b	-0.0031209912
122	0x3d7915ac	0.060811684
123	0xbd27691c	-0.040871724
124	0xbdbe46a7	-0.092908196
125	0xbd506dc4	-0.05088593
126	0x3dd99f84	0.10626128
127	0xbda9524b	-0.08267649
128	0x3ddff93b	0.10936209
129	0xbd5c72c7	-0.053820398
130	0xbc3f9da0	-0.011695296
131	0xbda09278	-0.07840437
132	0xbdde6705	-0.10859493
133	0x3e026af5	0.12736113
134	0x3bcc1c5d	0.006228967
135	0xbd30ce9d	-0.04316579
136	0xbd400ab2	-0.0468852
137	0x3e065eae	0.13122055
138	0x3c3cfa20	0.011534244
139	0x3d6c72f1	0.057726804
140	0x3dbeecc3	0.093225025
141	0x3a29a169	0.00064708904
142	0xbe025311	-0.12727
143	0xbd6ef8d5	-0.058342773
144	0xbddc205b	-0.10748359
145	0x3be88d05	0.007096889
146	0xbe0c4516	-0.13698229
147	0xbcb6e142	-0.022324208
148	0x3ddf7341	0.10910655
149	0x3b1de7e2	0.0024094512
150	0xbbf305ce	-0.0074164635
151	0xbdbc001b	-0.091797076
152	0x3de5f347	0.11228042
153	0xbb854f7d	-0.0040683136
154	0x3d6c8aba	0.057749487
155	0x3df5d63b	0.12003752
156	0x3d8d8914	0.06910911
157	0xbc7e3b64	-0.0155170895
158	0x3da34829	0.07972748
159	0xbdd26381	-0.10272885
160	0xbd03fd18	-0.03222379
161	0x3d9d1ee8	0.076719105
162	0xbe0a6c74	-0.13517934
163	0xbd70b8bd	-0.05876993
164	0x3cfab554	0.030604042
165	0x3d9e4310	0.07727635
166	0xbc3974eb	-0.011319379
167	0x3d33261a	0.04373751
168	0x3b782640	0.0037864596
169	0xbdf9f338	-0.122045934
170	0x3b722e78	0.0036953967
171	0x3dfd3637	0.12363856
172	0x3cc0b018	0.023521468
173	0x3c2754be	0.010213075
174	0xbddb3480	-0.10703373
175	0xbd0b778e	-0.034049563
176	0x3dd09337	0.10184329
177	0xbcc75fd4	-0.024337687
178	0x3d38048a	0.044926204
179	0xbdab9e7f	-0.0837984
180	0xbd46f504	-0.04857351
181	0x3e02fb3f	0.12791155
182	0xbbbc1140	-0.005739361
183	0xbdc80b20	-0.09767747
184	0x3db315a3	0.08744361
185	0xbcd09cea	-0.025465447
186	0x3c420300	0.011841536
187	0xbd5ff401	-0.05467606
188	0x3d261d65	0.040555377
189	0x3e083ed8	0.13305223
190	0x3de9c5fe	0.11414717
191	0x3e077016	0.13226351
192	0xbdd74dfd	-0.10512922
193	0xbd927878	-0.07151884
194	0x3dcb7757	0.09934872
195	0xbbb313b6	-0.005464996
196	0xbda01766	-0.07816963
197	0xbd997a50	-0.074940324
198	0x3cd71361	0.026254358
199	0xbd0fb70e	-0.035086684
200	0x3c333834	0.010938693
201	0x3e092c45	0.13395794
202	0x3e46fdcf	0.19432758
203	0xbdee01cb	-0.11621436
204	0xbdf59253	-0.119908
205	0x3c8b8cf6	0.017034989
206	0x3deefa23	0.116688035
207	0x3d1b416e	0.037904195
208	0xbd05db9e	-0.032680146
209	0xbce51bdc	-0.027967386
210	0xbd4802d0	-0.048830807
211	0xbdfc1cf9	-0.123102136
212	0xbc82e5dd	-0.015978748
213	0x3d26fc11	0.040767733
214	0x3dae2ddb	0.0850484
215	0xbca248a2	-0.019810025
216	0xbdea75df	-0.114482634
217	0x3e39d8d4	0.1814912
218	0xbd360c3d	-0.044445265
219	0xbdfaa03d	-0.12237594
220	0xbca8cdff	-0.02060604
221	0x3d0f090d	0.03492074
222	0x3c71c716	0.014756938
223	0x3dccf78f	0.100081556
224	0xbddb6223	-0.107120775
225	0xbca8938b	-0.020578166
226	0xbdac4932	-0.084123984
227	0xbdb7c777	-0.08973592
228	0x3d6b9feb	0.057525557
229	0xbe2760fd	-0.16345592
230	0x3da62021	0.08111597
231	0x3dd14fa6	0.1022027
232	0xbdb15140	-0.08658075
233	0xbdeae71d	-0.114698626
234	0x3ca1ad8b	0.019736072
235	0xbd8e4676	-0.06947033
236	0xbe066823	-0.13125663
237	0xbe09f16b	-0.13471
238	0x3e172181	0.14758874
239	0x3d96574a	0.07340868
240	0x3d8a766f	0.06760871
241	0x3d89265f	0.06696772
242	0xbe39c456	-0.18141302
243	0x3cb06cae	0.021536198
244	0xbd53d209	-0.051713977
245	0xbe0c638d	-0.1370985
246	0xbdb44363	-0.088019155
247	0xbde9d03b	-0.1141667
248	0xbd20d01f	-0.03926098
249	0x3d8c1fda	0.06842013
250	0x3e015f25	0.12633951
251	0x3d989a9a	0.07451363
252	0xbe01c535	-0.12672885
253	0x3de7500f	0.11294567
254	0xbd789d2a	-0.06069676
255	0x3da2a238	0.07941097

hidden3.bias f4 [25]
0	0xbd1311c7	-0.035905626
1	0xbd116522	-0.03549684
2	0xbe0a5b42	-0.13511375
3	0x3d621665	0.05519714
4	0x3e0b2569	0.1358849
5	0xbdb20792	-0.0869285
6	0xbd94e1d1	-0.072696336
7	0xbd8ed4a5	-0.069741525
8	0xbbec1c42	-0.007205517
9	0xbc8955eb	-0.016764602
10	0x3d6061b6	0.054780684
11	0xbdbb3587	-0.09141069
12	0x3dd73f97	0.10510176
13	0x3d63d70e	0.055625014
14	0xbdd8c76e	-0.10584913
15	0xbd8a4d15	-0.067529835
16	0xbdc9d285	-0.098546065
17	0xbca46c68	-0.020071223
18	0xbd876172	-0.06610383
19	0xbe07dd81	-0.13268091
20	0x3e929eb2	0.286367
21	0xbd07d13d	-0.03315853
22	0xbe06ac4e	-0.13151667
23	0xbd3130ac	-0.043259308
24	0xbd945653	-0.072430275

output.weight f4 [1, 25]
0	0xbdfc9260	-0.12332606
1	0x3e1278a2	0.1430383
2	0x3e3dc64f	0.1853268
3	0xbe105143	-0.14093499
4	0xbe6faae6	-0.23405036
5	0xbe3da67b	-0.18520539
6	0xbd2645e0	-0.04059398
7	0xbd94d3d0	-0.072669625
8	0xbe0f26ac	-0.13979596
9	0x3c34009a	0.010986472
10	0x3ea6e08d	0.32593194
11	0xbe03efa5	-0.12884386
12	0x3e44662c	0.191796
13	0x3df1d750	0.11808646
14	0x3db57b0a	0.088613585
15	0xbe533bd8	-0.20628297
16	0x3de18d6a	0.11013301
17	0xbe1b036b	-0.15138023
18	0x3d9c422a	0.07629807
19	0x3e2ccf42	0.16875938
20	0x3f005b02	0.50138867
21	0xbe351e3f	-0.17687319
22	0xbe20a127	-0.15686475
23	0x3e47f5d0	0.19527364
24	0xbe27345d	-0.16328569
