taskA3/best_model_weights_fold_3.pth (torch, 429208 bytes, 7 tensors)

hidden1.weight f4 [100, 1000]
00000000: 398f cfbc 525e 8f3a 2521 ccbb 106f 2f3c
00000010: fe1a eb3c 7119 953c b0f0 c3bb a4da a83c
00000020: ae2e 9a3c 312b cbbc 9762 733b 8fde 153c
00000030: b00f 47bc 44a6 8a3c 0d0a d1bc f5e2 213b
00000040: 2a09 aa3b e4cb bf3b 2e65 81bc 5637 58bb
00000050: 0e09 963a 56a1 91bb b0a2 26bc 850d 02bd
00000060: 79f1 97bc d0be 21ba 30a2 283c 8a8e 92bc
00000070: 6dc1 763c a5c7 f7bc d40c 883c 4e00 5f3c
00000080: 9271 72bc 7842 a8bc 891b 693c 7558 8abc
00000090: 4786 db3c 7705 9eb9 709d c33c e89d cf3c
000000a0: ab80 d23c 548e de3c 2a68 043c 45a1 cd3c
000000b0: fefa a43c d647 bbbc 6f19 e23c ccfc 883b
000000c0: f7a6 c7bc e732 f7bc 43db 44bc 7fe6 123c
000000d0: 33b7 393a 260d dfbc fdc4 8f3b 4b19 2abc
000000e0: c0a4 0b3c 1f5c 83bc 1ca6 00bc f677 98bb
000000f0: bdea bfbc 1c9a d73c 8a7b c73b 8d46 94bc
00000100: 054e da3b 6dbf abbc 9a50 ebbc ad31 f6bc
00000110: a246 6f3c b26f 75bc bce5 babc 4905 bdbc
00000120: f7af eaba add3 5dbc 09a5 e73a 7fde 0d3c
00000130: 7f02 573c 7adc 1a3d aabf f2bb 0f0d 90bc
00000140: 3318 89bb 9676 283c 706d 1c3c c737 b13c
00000150: 451a 683c e1ea ccbc a9e8 553b d84d 8a3c
00000160: fdc6 b23c 29b5 9dbc 633c 80bc 7cee 673a
00000170: 348d 833c 31b7 c23c 829e cc3c 55cc d63b
00000180: 2586 003d 6dd2 673a c3f7 053c c307 a03b
00000190: 7465 92bc 10dc b23c 46c2 c2bb a144 9d3c
000001a0: 487d 3a3b 1a28 8f3c 12ec aabc f451 dd3b
000001b0: c61a 2bbc acb1 d43c 025e 773c ed49 813b
000001c0: 0221 c43b 542f 873b 80ff f83c 817f bb3c
000001d0: fa39 843c bb17 84bb e7d5 a2bc f7ed eaba
000001e0: 6ff8 89bc 2399 b1bc 8ac0 eeb8 166f a43c
000001f0: e3fe 383b 1a8c 81bc 0043 c6ba 8004 cdbc
00000200: 69f7 b73c 3206 e33b 4fa3 3c3c d867 f2bc
00000210: c2df df3c 67c0 c5bc cb79 f83c 6b17 203c
00000220: 655e 8d3c 4f0f e83c ca77 bdb9 0dcb f83b
00000230: 2445 57bc 23f1 87bc 9c67 13bc 50c7 983c
00000240: 7f40 5d38 f73b 13bc 62d3 023d 2345 9a3c
00000250: 91ee 67bc ce46 023c fcda 4b3a 2912 e8bc
00000260: ba39 a53b cf93 b23b a418 f73b 8203 13ba
00000270: d0d9 cc3c 92ec ea3c 7e34 9837 41f3 a23c
00000280: cd33 cdbc a62e e93c c779 e1bb 3056 f73c
00000290: 2c4c 4fbc dac7 fcbc 1c84 873c 42fb 113c
000002a0: 3b6a 153b dd8d 75bb a5f6 193c ad64 aabb
000002b0: 0316 a43c 3655 43bb 91d3 993c 1876 bb3b
000002c0: 502e 98bc 28bf 14bc 45e2 063c c751 f1bc
000002d0: a2a5 b4bc c1d9 ad3a 1ba6 ecbc ebfb b73c
000002e0: 78d6 93bb 62a6 b2bc 0307 35bc ac37 603c
000002f0: 5482 aa3c 25fa 2ebc af14 81bc d6b1 653c
00000300: f38a 53bc 6912 98bc bdd8 493c fa9c 9abc
00000310: 4f0a c0bc bcca 3a3c 754e 2fbc bc13 953b
00000320: 4e3d dabb b446 043c a8c3 1f3c 92ac 8ebc
00000330: 172b c93c 63fb 70bc 1bb1 9abb d7b1 efbb
00000340: ec30 e1bb 0ce8 dbbc 5f96 b0bc bc75 983c
00000350: d6af 35bc 28c7 9eb7 9c42 c93b 3397 1ebc
00000360: 1272 51ba 9276 d53c 5949 873c f9dc 3cbc
00000370: 989a 30bc 4058 ae3c 4679 2abc d02c c4bc
00000380: f637 80bc 734e fbbc 41bd e43b 8687 643b
00000390: 28c3 d73c 1b98 433b 789a 8dbc b801 afba
000003a0: c11e c33c 966f 82bc 7eb4 c13c 1285 2b3c
000003b0: 90a3 f4bc 421c fe3c e1fc 64bc 6289 0f3b
000003c0: 82a7 013d ee5b f9bc 637c 983c c366 983a
000003d0: db2c 95bc 3171 e3bc 5023 f13a a96e d43b
000003e0: da6c b4bc 4aeb b0bc ca9b 543c 0a3c 853b
000003f0: e15d 4abc 6c6f 0f3c 8411 adbc 85a6 613c
-0.025336849 0.0010938144 -0.006229537 0.010707632 0.028699394 0.018200608 -0.00597962 0.020612068
0.018821087 -0.024800869 0.0037137622 0.0091473 -0.012149736 0.016924985 -0.025517488 0.0024701927
0.0051890807 0.005853163 -0.015795317 -0.0032991967 0.001144679 -0.0044442816 -0.010170624 -0.031751174
-0.01854776 -0.0006170096 0.010292575 -0.017890234 0.015060765 -0.030246565 0.01660768 0.0136109125
-0.014797585 -0.020539507 0.014227756 -0.016887883 0.026797427 -0.0003014018 0.023878783 0.02534385
0.02569612 0.027167477 0.008081475 0.025101313 0.020139214 -0.022861402 0.027600018 0.0041805264
-0.024371607 -0.03017564 -0.012015167 0.008966087 0.0007084489 -0.02722795 0.0043874965 -0.010382007
0.008523166 -0.016035138 -0.007852104 -0.0046529723 -0.023427362 0.026318602 0.006087725 -0.018100047
0.0066621327 -0.020965302 -0.028724957 -0.030052984 0.0146042425 -0.0149802435 -0.022814624 -0.02307381
-0.0017905225 -0.013539237 0.0017673086 0.008659004 0.013123154 0.03780792 -0.007408102 -0.017584352
-0.004183793 0.010282179 0.009547576 0.021633042 0.014166419 -0.025014343 0.0032639897 0.016882822
0.0218234 -0.019251423 -0.015653795 0.00088474876 0.016058542 0.023768993 0.024977926 0.00655512
0.03137793 0.00088433066 0.008176747 0.004883738 -0.017870642 0.02183345 -0.0059435694 0.019197764
0.002845602 0.017475177 -0.02086452 0.0067541543 -0.010443395 0.025963627 0.015098097 0.00394558
0.00598538 0.004125515 0.03039527 0.022887947 0.016140927 -0.004031149 -0.019877387 -0.0017923702
-0.016842095 -0.021679467 -0.000113845876 0.020072501 0.0028228096 -0.015813876 -0.0015126169 -0.02502656
0.022456842 0.006928229 0.011513545 -0.029590532 0.027328376 -0.024139596 0.030331513 0.009771208
0.017256925 0.028327612 -0.0003613814 0.007592565 -0.013139043 -0.016594475 -0.00899687 0.018649727
5.2750573e-05 -0.008986465 0.03193987 0.018831795 -0.014156 0.007951451 0.00077764667 -0.028328972
0.005042282 0.005449749 0.007540779 -0.00056081277 0.025006205 0.028677259 1.8144256e-05 0.019891383
-0.025049115 0.028464627 -0.006880972 0.030192465 -0.012652438 -0.030857015 0.016542487 0.008910002
0.0022798914 -0.003746859 0.009397184 -0.00519999 0.020030027 -0.0029805428 0.01877764 0.005720865
-0.018576771 -0.009078778 0.008232658 -0.02945794 -0.022051636 0.0013263748 -0.028887799 0.022458991
-0.0045116507 -0.021807853 -0.011049035 0.013685148 0.020814098 -0.010679756 -0.015756933 0.01401945
-0.012911546 -0.018563466 0.012319741 -0.01887368 -0.023442416 0.011400875 -0.010699858 0.0045494717
-0.00666014 0.008073498 0.009751238 -0.017416272 0.02455668 -0.014708373 -0.0047208196 -0.0073149013
-0.006872287 -0.026844047 -0.021556078 0.018610828 -0.011089286 -1.8927807e-05 0.0061419737 -0.009679603
-0.0007989715 0.026057515 0.016514467 -0.011527293 -0.0107790455 0.021282315 -0.01040489 -0.02394715
-0.015651684 -0.030677056 0.0069805686 0.0034870817 0.026338175 0.00298453 -0.01728557 -0.0013351953
0.023818376 -0.015922349 0.023645636 0.010468738 -0.029863149 0.031019334 -0.013976307 0.0021901955
0.03165389 -0.030439343 0.018614 0.0011627305 -0.018209865 -0.027763935 0.0018397365 0.0064829183
-0.02202456 -0.02159657 0.012976596 0.004065995 -0.012351484 0.008754592 -0.021126516 0.0137726115

hidden1.bias f4 [100]
00000000: fa38 b6bc 3676 38bc 5872 933b efc5 23bc
00000010: d50b ad3c 459d 853c 534f 8fba 0e8d 99bc
00000020: e0f1 c53b 0247 603c 86ad c43b 38ed 23bc
00000030: a212 bfba fb19 713c 7e4f e0bc 41b2 e4bb
00000040: 9f9e 6abc bf4e ab3c dc7a 95bc 9f7a 82bc
00000050: 1940 e73b 8e27 3c38 251e 92bb e9bc 11bd
00000060: eed9 ff3b 8aa8 f93c b8d9 5dbb 7d8c 4b3a
00000070: d938 e03c f0ed 923c a9f0 29bb 0667 dd3c
00000080: 387a b83c 9fca 93bc c42d a2bc 1513 f73c
00000090: cc5d f93c 8064 163d 273f fdbb bfe2 f9bb
000000a0: 127e 8abc d909 8e3c 8b39 93bb ebb9 783c
000000b0: 7cf1 06bd f94b e6bb 51bf fb3b 3bc8 a73c
000000c0: 02e1 d1bc 2490 c4bb 031e 8a3d 8f23 cbbc
000000d0: fd79 323c cc8a 0abd f665 103b bb43 a73c
000000e0: 822f 67bc a7cc 6bbb a887 82ba adea a4bb
000000f0: fc18 ac3c 8755 d03c 4773 b93c 9a88 b4bb
00000100: acf2 dc3c 1501 df3c 144e 15bc 8f2c ed3c
00000110: 2720 6bbc a550 c73c 803d c3bb dcf6 e7bb
00000120: 449a a8bb 1269 403c eefe e23c c1be 1fbc
00000130: c7ca 8bbb 6231 2bbd 4f9a bd3c 0f2d 413c
00000140: 4e5d b5bc 918d d33c 8698 cf3b f33f 0bbb
00000150: 167f d13c 6e1c 03bb 65ea 14bb dc86 673c
00000160: 6d8a 9dbc 6d32 213d 3fed ba3c eaa4 68bc
00000170: b5ad 0f3d dfc2 2cbc 5212 aa3c d60a 28bb
00000180: 41b0 8f3d 28ed df3c 2f5b a2bc 7f2e ab3c
-0.022243965 -0.011258652 0.004499715 -0.0099959215 0.021123806 0.016310344 -0.0010933675 -0.018744018
0.0060407966 0.013688805 0.006002131 -0.010005288 -0.0014577697 0.014715667 -0.027381655 -0.0069792573
-0.014320045 0.020911573 -0.01824706 -0.01592761 0.0070572016 4.485953e-05 -0.00445916 -0.03558055
0.0078079617 0.030475874 -0.0033851694 0.000776477 0.027370857 0.017935723 -0.0025930798 0.027026664
0.022519216 -0.018040953 -0.019797213 0.030160466 0.030440234 0.036716938 -0.0077284756 -0.007625907
-0.016905818 0.01733868 -0.0044929436 0.015181045 -0.03294514 -0.0070280996 0.007682719 0.02048122
-0.025619987 -0.005998628 0.067440055 -0.02479723 0.010893342 -0.033823773 0.002203343 0.020418039
-0.014110448 -0.0035980137 -0.0009958642 -0.0050328583 0.021008007 0.025431408 0.022637976 -0.0055094482
0.026971184 0.027222196 -0.009112854 0.028951911 -0.014350927 0.024330446 -0.005958259 -0.0070789885
-0.005145343 0.011743801 0.02770945 -0.009750069 -0.0042661163 -0.041795142 0.02314487 0.011790528
-0.022139218 0.02582434 0.006335321 -0.0021247834 0.025573295 -0.002000596 -0.0022722718 0.014131274
-0.019231046 0.03935473 0.022818206 -0.014199475 0.03507777 -0.010544508 0.020760689 -0.0025641224
0.0701604 0.027334765 -0.01981887 0.020896195

hidden2.weight f4 [50, 100]
00000000: e8d5 aa3d a320 43bd b066 9a3d 4d9a c73b
00000010: b397 953d 5a73 79bc 8ae6 373d c0d6 93bc
00000020: 93ae 5abd 2ae4 1e3d e3ca 1ebd 4dff b93b
00000030: 3398 a73c 4de1 bd3c 17cc 203d 27b8 5dbc
00000040: c0eb bfbc b372 64bd 334e 7d3c 6316 063d
00000050: 70d3 9a3d 67db 4e3c e059 203d fa94 893d
00000060: 4d3d 233d d2e3 80bd 00fe ce3b 6051 3d3d
00000070: 3847 adbd 07b6 aa3d 10d1 2c3d 1736 a43d
00000080: 9a09 71ba 030b bbbd 0041 1f3d 67eb 1a3b
00000090: 6268 92bd aa15 9b3d 8d8a 85bd 17e4 a4bd
000000a0: b036 bf3d b0cf 5bbd 9310 e9bc 9da1 8e3d
000000b0: 0376 043d 2d7f 673d 3056 003d 459d 9cbd
000000c0: 3362 19bb 0760 7bbd 4d69 ecbc d073 31bd
000000d0: 0daa 19bd 3200 bfbd a72e 173c 7d4b 86bd
000000e0: 7dae 02bd 9d57 563d 3336 9dbb a7c9 083d
000000f0: 8058 f4bb 0ad3 a7bd 9364 793d cf12 8dbd
00000100: 4d98 57bd 1a91 ee3c 85c2 c4bd 40c3 32bd
00000110: e02e bf3c eaac c83d 7708 8b3d 4a70 2d3d
00000120: e7a3 853d 2d98 17bd f014 1e3d 58c5 a53d
00000130: 98a1 b93d 5049 02bd 336d a9bc 7357 31bd
00000140: 770a c93d 6592 843d 0074 5bbb 0d9c 9fbd
00000150: e8c1 8a3d d337 adbc 006c 7c3a f852 8dbd
00000160: 5397 593d e717 8abd 7b57 b23d 7b2b bdbd
00000170: c7fd a53c dbac ac3d a7f4 f3bc eac3 6abd
00000180: 037b 61bd 3085 19bd 3782 5b3d 5389 a3bd
00000190: 51b5 f0bc a8c6 2c3d 3857 123d ec8a b8bb
000001a0: ceee 323d 9747 a2bd 151a cf3c 2ff9 61bc
000001b0: 9e30 b73d dcda 173d 427c 3fbc e1a6 b7bd
000001c0: 1f8b 0d3d ce24 bb3c 8292 0e3d 0cac 253b
000001d0: ff94 823b 9c95 bcbd 4755 75bc c44b c6bc
000001e0: f26d 193c dff9 be3c 9dfe e23c 962e 01bd
000001f0: 4f15 b6bd c9b4 2bbd 1827 cf3d 90bd 2f3d
00000200: 33de e43c 65a0 1fbb c15a c1bd 5716 87bd
00000210: 533b 963d b5c9 5cbd c6f7 0e3d b906 923d
00000220: 7a87 40bd a418 143c f0cf 923a bec4 1f3d
00000230: 8a86 b6bd 2dfa acbd f52c d43d 4e51 fb3b
00000240: 02f8 9a3c 5fae 80bb 7068 b0bd 214e 233d
00000250: 7d90 8dbd 1119 a9bd 24fa b6bd 773c 013d
00000260: bd10 613c 2c71 8b3d 2721 8d3d 39ee ee3c
00000270: 624f 5ebd 5598 423d fd60 30bd 65ca 0cbd
00000280: 6dfd 4cbd 3d22 97bd dd3d 89bd feeb 963c
00000290: e4db a23c 7585 4a3d 1f3b 93bd 97e6 66bd
000002a0: 3bc1 063c 3610 b13d b799 593d a455 653d
000002b0: 57e9 56bd eaf3 a73d 76c4 b83d 0a22 07be
000002c0: 1acf 3cbd 5a20 863d ad35 ca3d 3af2 8bbd
000002d0: d5fa 18bd 221e 47bd 34f2 96bd fb72 fa3d
000002e0: af8a ca3d 477a 933c f06d 893d 3ee7 863d
000002f0: ae00 a23d fd78 743d 0ba3 a13d 228a 733d
00000300: 2177 f43d 1608 ef3b 757e 333c ee28 71bb
00000310: d9ae 66bc 4a4d 93bc 9e4e a93b cfbd a63d
00000320: 4f54 dc3c 6991 09bd 3501 753d a8aa d0bd
00000330: 7d0e d4bd 5c84 f7bc 13e5 4e3d a219 3a3c
00000340: 0271 503d 2e3e 053e 4db8 99bc 2fe7 03be
00000350: 2ab7 5f3d 0ef8 dbbc 7525 333e a393 23be
00000360: 605e 353c 8d38 a2bd 544c 36bc 2727 67bd
00000370: 71d6 0bbe ed4a aabc 8ea4 0abc b2d5 2d3d
00000380: cc18 b8bd 49ae 283c 96c0 1e3e 9e66 b33c
00000390: 4331 b8bd 42e1 a5bd cd2f 3abe 2105 cdbd
000003a0: a098 ab3c 08dd 18bd c573 21bc 549d 323d
000003b0: 8623 b03d 7619 083e e1d1 edbd c5e4 1fbb
000003c0: 0edb 8b3d 46bd a4bd d8cd 9d3d 91fb a33d
000003d0: ae83 063e 3eb3 13bd 5c56 19be a508 e23d
000003e0: d98f 223d 26cb a43c 8dc1 163c f116 053e
000003f0: ea18 833c acef 003c ac09 66bc f98e 1e3d
0.08341581 -0.047638547 0.07539117 0.006091392 0.07304325 -0.015225256 0.044897594 -0.018046737
-0.053389143 0.038791813 -0.038767707 0.005676186 0.020458316 0.02317872 0.039257135 -0.013532675
-0.023427844 -0.05577345 0.015460539 0.032736193 0.0755986 0.012625552 0.03914821 0.06717868
0.039853383 -0.06293453 0.0063169003 0.046220183 -0.084608495 0.083355 0.042191565 0.08018129
-0.0009194851 -0.0913296 0.03888035 0.0023638846 -0.07148816 0.075724915 -0.06520567 -0.08051317
0.09336603 -0.053664863 -0.028450286 0.06964419 0.032339107 0.05651777 0.031332195 -0.07647184
-0.0023404479 -0.061370876 -0.028858805 -0.043323338 -0.03751569 -0.09326209 0.009227431 -0.06557367
-0.031904686 0.05232965 -0.004797721 0.033395436 -0.007456839 -0.081945494 0.06088693 -0.06888353
-0.05263548 0.029121924 -0.09607414 -0.043643236 0.023337781 0.09798606 0.06788724 0.042343415
0.065254025 -0.03701036 0.038594186 0.08094281 0.09064025 -0.031808197 -0.020681953 -0.04329629
0.09816449 0.06473235 -0.003348589 -0.07793436 0.06775266 -0.021144783 0.00096291304 -0.06900591
0.05312283 -0.0674284 0.08708092 -0.09236809 0.020262612 0.08431407 -0.029779745 -0.057315744
-0.055048954 -0.037480533 0.05359098 -0.07985177 -0.029383333 0.04218164 0.03572771 -0.005631795
0.043684773 -0.07923811 0.025280992 -0.01379232 0.0894482 0.037073955 -0.01168734 -0.089673765
0.034556504 0.022844698 0.03480769 0.002527955 0.003985047 -0.09208223 -0.014973945 -0.02420605
0.009364592 0.023312507 0.0277093 -0.03153857 -0.08890783 -0.041920457 0.101148784 0.04290539
0.027937984 -0.0024357077 -0.09441138 -0.06596058 0.07335534 -0.0539033 0.034904264 0.071301885
-0.0470042 0.009039078 0.0011200886 0.039005987 -0.0891238 -0.08446155 0.103601374 0.0076696044
0.018917087 -0.0039270367 -0.0861367 0.03986943 -0.069123246 -0.08256734 -0.08934429 0.031551804
0.013736901 0.06808695 0.06891089 0.029166328 -0.054274924 0.047508556 -0.043061245 -0.034372706
-0.050046373 -0.07379577 -0.067012526 0.018423077 0.019880243 0.04944368 -0.07189011 -0.05637225
0.008224781 0.0864567 0.05312511 0.055989876 -0.052468624 0.0820082 0.09021847 -0.13196579
-0.046095945 0.06549139 0.09873519 -0.068333104 -0.037348587 -0.04861272 -0.07370415 0.12228962
0.09889733 0.018002642 0.06710422 0.06587075 0.07910286 0.059685696 0.07892426 0.059457906
0.119367845 0.007294665 0.010955443 -0.0036798078 -0.014079773 -0.01798119 0.0051668426 0.08141672
0.02689567 -0.03358594 0.059815604 -0.101888 -0.10354326 -0.030214481 0.05051143 0.01135865
0.050889023 0.13012001 -0.01876464 -0.12881158 0.05461804 -0.02685168 0.17494757 -0.15974288
0.011069864 -0.079209425 -0.0111265965 -0.056433823 -0.13656022 -0.02078768 -0.008462084 0.042440124
-0.08989105 0.010295459 0.15503153 0.021899518 -0.08993771 -0.08099605 -0.18182297 -0.10010744
0.0209468 -0.037320167 -0.009854262 0.04360707 0.086005256 0.13290963 -0.11612297 -0.0024397832
0.06828891 -0.080439135 0.07705277 0.08006967 0.1313617 -0.03605961 -0.1497435 0.11036805
0.039687965 0.0201164 0.00920142 0.12997033 0.01600309 0.007869642 -0.014040392 0.038710568

hidden2.bias f4 [50]
00000000: c749 12bd e168 df3c 1b37 d73d 2cbc 303d
00000010: 3276 bc3c a0b4 fe3c d102 f03c d78b 473b
00000020: 9ea5 f8bc b02d 563d 584c 273d d51c c5bd
00000030: c2dc a1bd f025 333d 43b5 9ebd e696 623d
00000040: edee 77bd 1d9b 913d e304 aa3c 8950 763d
00000050: f5a8 d43d 157c c4bd 2bb3 b73a d3f5 c1bd
00000060: f74b 32bd 23ce 6cbd 8d36 8d3c 1f20 1a3d
00000070: d3b7 013d 7547 6c3d ed2b 103d 29b3 cf3d
00000080: a829 2b3d 3839 ccbd 5dfd dbbc 3597 d63c
00000090: e7fa 263d bcd5 9e3c 4445 de3d 10bc b63a
000000a0: 35f0 cf3c ca10 ccbd 5c22 ca3d 5358 6cbd
000000b0: d973 c7bc 0d01 6dbc 3333 993c 9ff9 db3c
000000c0: 653a ba3d 176a 8d3a
-0.03571489 0.02727169 0.105085574 0.043148205 0.023005579 0.031091988 0.029298218 0.0030448341
-0.03035241 0.052289665 0.04084429 -0.0962464 -0.07903434 0.043737352 -0.07749417 0.05531969
-0.06053059 0.07109664 0.020754283 0.060135398 0.103837885 -0.09593979 0.0014015188 -0.094707154
-0.043529477 -0.057813775 0.017237926 0.03762829 0.03166945 0.057685334 0.03519814 0.10141594
0.041787773 -0.09971851 -0.026854211 0.026195148 0.040766623 0.019389026 0.10853055 0.0013941545
0.025383094 -0.0996414 0.09869835 -0.05770142 -0.024347233 -0.014465583 0.018701172 0.026852427
0.09093169 0.0010789064

hidden3.weight f4 [25, 50]
00000000: b407 f53d 8a66 813d 2b6d dbbc c469 983d
00000010: 18ec 50bd 2c7b cabd 75c3 e03d 80b0 ef3c
00000020: f3cc 8bbd a399 56bd 0721 103d 0270 94bd
00000030: 7e8c babd de6d e2bd 9880 f2bd c7c2 e93d
00000040: 3206 7abd 0863 ad3d 4dd5 4dbd b9fd bfbd
00000050: 5f5d da3d 87ef eb3d 8890 babd 0280 47bd
00000060: 883a 81bd 7b5e f63d dead cfbd 428f 033e
00000070: 43fd 933c 6ae1 993d 65b3 0dbd 8e8e 3ebd
00000080: f6ad a03c 6b78 273d 84ea e93d ddbd 0ebe
00000090: d214 9cbd 87d6 2bbb 2de9 ef3b 9d6b b5bd
000000a0: 26e2 a53c 6f8e f53d e1fe 06be e9ba 3cbd
000000b0: 9ade 86bd e79f e53d 164e d2bd 85cd c6bd
000000c0: e003 1fbd a656 b6bd 2bbb fbbd e301 7b3d
000000d0: 3b08 4a3c 3ca5 7fbd 4302 e1bd 8f39 dbbd
000000e0: 2d6c 233d e969 fcbd c410 833d d581 133e
000000f0: 62c0 eb3d 99e7 cabd cd2b 463d d20e c83d
00000100: d6da 353d b9d7 6fbd 6047 0b3e b703 cb3d
00000110: a84f 0abd cbe9 913b 0033 6b3d b448 93bd
00000120: 29a2 b5bb b515 dcbd b5ab 873d 3e34 c83d
00000130: f9fe a7bd 8c67 e13c d035 333e 2b4c d53d
00000140: a926 cabd 3a05 18be eb28 c73d e36a cebd
00000150: 59e0 4ebd 3321 90bd 78c3 2fbd 49a4 6d3d
00000160: 6fe6 4e3c 469d 3f3d a65d 783d e784 6a3d
00000170: 94f6 ef3d aadb 0b3d 9207 e53d c85e fcbd
00000180: 8584 533d 7994 d43d 231e b83b 618a 3d3d
00000190: 54af 63bd 96c1 3d3d 87d7 083e bebb fd3d
000001a0: 909e 953d 7d1b 2c3d 3d42 adbd 52f7 b8bd
000001b0: 6daf b8bc 2135 af3d 65d4 a53c 0587 72bd
000001c0: 3833 263d eab8 073e 51e0 913d b431 09be
000001d0: 0929 bc3c f5db e0bd 869a a0bd 0ec5 df3d
000001e0: 5c6a a23d 8b89 4cbb ac15 793d 1c69 27bd
000001f0: a746 bebd c46d 50bd 849f d93d 4b52 a9bd
00000200: 3bf9 df3d c772 5cbd a09d 3fbc 7892 a0bd
00000210: 0567 debd f56a 023e 5d1c cc3b 9dce 30bd
00000220: b20a 40bd ae5e 063e 20fa 3c3c f172 6c3d
00000230: c3ec be3d 69a1 293a 1153 02be d5f8 6ebd
00000240: 5b20 dcbd 058d e83b 1645 0cbe 42e1 b6bc
00000250: 4173 df3d e2e7 1d3b ce05 f3bb 3ec7 a3bd
00000260: 2235 123e 873c cdbb ab10 9d3d f65a 0b3e
00000270: 31b3 a73d 31c4 70bc 894a a33d f9d1 e8bd
00000280: 3141 bbbc e81e 9d3d 746c 0abe 9735 25bd
00000290: 54b5 fa3c bc25 d93d eb74 39bc 9070 8e3d
000002a0: 10ab 0f3b ed6f 08be 1390 df3c 3736 fd3d
000002b0: 3ceb 1c3d be54 273c 8034 dbbd 8e77 0bbd
000002c0: 79dc d73d 5157 24bd cef4 2d3d 172c b6bd
000002d0: 3754 edbc b6f9 143e 00b8 98bb 200b c8bd
000002e0: 580d b33d 622f e2bc 54cb 563b 36c0 62bd
000002f0: f8b3 983d ae83 0e3e 7c77 fa3d 1670 073e
00000300: 26cb e9bd 7878 92bd 6dc8 c93d b36d 24bb
00000310: 65ed 9abd 2d8f 90bd e0ee 733c ebed 48bd
00000320: 3438 333c 4d25 1c3e e700 773e 8dfa f4bd
00000330: 80ac b7bd a024 2e3d e72c 0c3e fd20 203d
00000340: 13d5 05bd 0635 3bbd 51fe 0ebd f91c fcbd
00000350: dde5 82bc 9733 8f3d db2d ae3d e942 d43c
00000360: df75 eabd 18f4 623e bcf1 43bd d381 10be
00000370: 5a5a 7a3c 0d09 0f3d 96eb 1c3d 8ff7 cc3d
00000380: 2362 dbbd 8b93 a8bc 10b4 a0bd 4c3c edbd
00000390: c20e 593d 2e09 30be 0331 e63d 542b 033e
000003a0: 2933 afbd 1de7 eabd 1278 a13c 69a0 96bd
000003b0: ef81 15be 661c 0bbe a91c 4d3e f5df aa3d
000003c0: f11b a53d 5f26 893d 0a17 4abe ae6c b03c
000003d0: 0069 59bd fa87 07be 554d adbd a042 dbbd
000003e0: 1f02 6fbd 468f 3a3d 255f 013e 9a9a 983d
000003f0: 35c5 01be 0f50 e73d 2a9d 78bd 38a2 a23d
0.1196436 0.06318386 -0.026785454 0.07442048 -0.051006407 -0.098867744 0.109747805 0.029258966
-0.068262 -0.052392613 0.035187747 -0.07247926 -0.09108828 -0.11056112 -0.118409336 0.11414104
-0.061041065 0.08466154 -0.050252248 -0.09374566 0.106623404 0.115202956 -0.091095984 -0.048706062
-0.06309992 0.120297395 -0.101405844 0.12847617 0.0180651 0.075136974 -0.034594912 -0.04652267
0.019614201 0.040886324 0.114216834 -0.13939615 -0.07621159 -0.0026220398 0.007321498 -0.08858416
0.020249438 0.11990058 -0.13183166 -0.04607669 -0.06585427 0.112121396 -0.102688 -0.097071685
-0.038822055 -0.08903246 -0.12291559 0.061281096 0.012331064 -0.06241344 -0.109867595 -0.10704338
0.039898086 -0.12324888 0.06399682 0.14404996 0.115113035 -0.09907455 0.048381615 0.09768452
0.04439815 -0.05855534 0.13601446 0.09912818 -0.033767372 0.004452919 0.057421684 -0.071916014
-0.0055430126 -0.10746328 0.066245474 0.097755894 -0.08202929 0.027515195 0.17500997 0.104149185
-0.09870655 -0.14845744 0.09724601 -0.10078981 -0.050506923 -0.07037582 -0.042911023 0.058018003
0.012628182 0.046780847 0.060636185 0.05725565 0.11716953 0.034145035 0.111830845 -0.123227656
0.051640052 0.103798814 0.005618827 0.046274547 -0.055587128 0.046327196 0.13363467 0.123893246
0.07305634 0.042018402 -0.084598996 -0.090315476 -0.022544587 0.085550554 0.02024288 -0.059210796
0.04057619 0.13254133 0.07122863 -0.13397866 0.022968786 -0.109794535 -0.07841973 0.10926257
0.07930443 -0.0031209912 0.060811684 -0.040871724 -0.092908196 -0.05088593 0.10626128 -0.08267649
0.10936209 -0.053820398 -0.011695296 -0.07840437 -0.10859493 0.12736113 0.006228967 -0.04316579
-0.0468852 0.13122055 0.011534244 0.057726804 0.093225025 0.00064708904 -0.12727 -0.058342773
-0.10748359 0.007096889 -0.13698229 -0.022324208 0.10910655 0.0024094512 -0.0074164635 -0.07996987
0.14278081 -0.006263319 0.07669195 0.13608918 0.08188475 -0.014695213 0.07973201 -0.11368174
-0.022858234 0.076719105 -0.13517934 -0.04033431 0.030604042 0.106029004 -0.011319379 0.06955063
0.002192203 -0.13323946 0.02729038 0.12363856 0.038310274 0.010213075 -0.10703373 -0.034049563
0.10540099 -0.040122334 0.042469792 -0.08895128 -0.02897082 0.14548382 -0.0046606064 -0.09767747
0.087427795 -0.027610485 0.0032775002 -0.055359088 0.07456201 0.1391742 0.12229821 0.13226351
-0.114157006 -0.07151884 0.09852681 -0.00250898 -0.07564811 -0.070585586 0.014888495 -0.04905502
0.010938693 0.15248604 0.24121438 -0.11961851 -0.08968449 0.042515397 0.13689004 0.03909396
-0.032673907 -0.045704864 -0.034910504 -0.123102136 -0.015978748 0.06992262 0.0850484 0.025910811
-0.114482634 0.22163427 -0.047837958 -0.14112024 0.015280331 0.03492074 0.03831061 0.100081556
-0.107120775 -0.020578166 -0.07846844 -0.11583766 0.05299259 -0.17191002 0.11239817 0.12809497
-0.0855468 -0.114698626 0.019710574 -0.073548146 -0.14600347 -0.13585052 0.20030464 0.08343498
0.0806197 0.06696772 -0.19735351 0.021536198 -0.05307865 -0.13235465 -0.084620155 -0.10706067
-0.058351632 0.045546792 0.12633951 0.07451363 -0.12672885 0.11294567 -0.06069676 0.07941097

hidden3.bias f4 [25]
00000000: c711 13bd 0304 06bd 425b 0abe 9733 3f3d
00000010: e8c5 d13d 9207 b2bd d1e1 94bd a5d4 8ebd
00000020: 421c ecbb eb55 89bc 14da cf3d 8735 bbbd
00000030: 13f5 2b3e aacb 963d 6ec7 d8bd 4671 93bd
00000040: 85d2 c9bd 686c a4bc 7261 87bd 81dd 07be
00000050: 4627 cc3e 3dd1 07bd 4eac 06be ac30 31bd
00000060: 5356 94bd
-0.035905626 -0.03271867 -0.13511375 0.04668006 0.10242826 -0.0869285 -0.072696336 -0.069741525
-0.007205517 -0.016764602 0.10149017 -0.09141069 0.16792707 0.073630646 -0.10584913 -0.071993396
-0.098546065 -0.020071223 -0.06610383 -0.13268091 0.39873713 -0.03315853 -0.13151667 -0.043259308
-0.072430275

output.weight f4 [1, 25]
00000000: 6092 fcbd 53e3 513e 4fc6 3d3e 43bf d6bd
00000010: 6738 30be 7ba6 3dbe e045 26bd d0d3 94bd
00000020: ac26 0fbe 9a00 343c 0971 563e a5ef 03be
00000030: d17f 1f3e 3eed a13d 0a7b b53d d452 34be
00000040: 6a8d e13d 6b03 1bbe 2a42 9c3d 42cf 2c3e
00000050: ad73 c53e 3f1e 35be 27a1 20be d0f5 473e
00000060: 5d34 27be
-0.12332606 0.20496874 0.1853268 -0.10485699 -0.17209016 -0.18520539 -0.04059398 -0.072669625
-0.13979596 0.010986472 0.20941557 -0.12884386 0.15576102 0.079065785 0.088613585 -0.17609721
0.11013301 -0.15138023 0.07629807 0.16875938 0.38564816 -0.17687319 -0.15686475 0.19527364
-0.16328569
