taskA3/best_model_weights_fold_4.pth (torch, 429208 bytes, 7 tensors)

hidden1.weight f4 [100, 1000]
0	0xbccf82d6	-0.025330942
1	0x3a8f5e52	0.0010938144
2	0xbbcc2125	-0.006229537
3	0x3c2c1193	0.010502237
4	0x3ce57564	0.028010078
5	0x3c951844	0.018200047
6	0xbbc3f0b0	-0.00597962
7	0x3ca8017b	0.020508518
8	0x3c9990d2	0.018745814
9	0xbccb2b31	-0.024800869
10	0x3b738104	0.0037155757
11	0x3c15de8f	0.0091473
12	0xbc46dce4	-0.012137625
13	0x3c8a9dea	0.016921002
14	0xbcd10a0d	-0.025517488
15	0x3b21e2f5	0.0024701927
16	0x3ba5a746	0.005055341
17	0x3bbfcbe4	0.005853163
18	0xbc81652e	-0.015795317
19	0xbb5dd226	-0.0033847182
20	0x3a960065	0.0011444209
21	0xbb91a156	-0.0044442816
22	0xbc26a2b0	-0.010170624
23	0xbd02132b	-0.03175656
24	0xbc977e36	-0.0184928
25	0xb8b98df5	-8.847929e-05
26	0x3c28a230	0.010292575
27	0xbc93d176	-0.018044215
28	0x3c76c16d	0.015060765
29	0xbcf0fa0a	-0.029416103
30	0x3c80ad04	0.0157075
31	0x3c5f004e	0.0136109125
32	0xbc727192	-0.014797585
33	0xbcaba07c	-0.020950548
34	0x3c6925f6	0.014230242
35	0xbc8a5875	-0.016887883
36	0x3cea5e8a	0.028609533
37	0x38e5ecd6	0.00010963685
38	0x3cc068ce	0.023487475
39	0x3cd3cfdf	0.025855957
40	0x3cd27ff2	0.025695775
41	0x3cde8de0	0.02716726
42	0x3c04682a	0.008081475
43	0x3ccff061	0.025383176
44	0x3ca4fafe	0.020139214
45	0xbcbb4561	-0.02286023
46	0x3ce2196f	0.027600018
47	0x3b88fccc	0.0041805264
48	0xbcc5632d	-0.024095142
49	0xbcfa673a	-0.0305668
50	0xbc461eb8	-0.012092285
51	0x3c156898	0.009119175
52	0x3a39b733	0.0007084489
53	0xbcdf0d26	-0.02722795
54	0x3ba3058b	0.004975026
55	0xbc2a194b	-0.010382007
56	0x3c0ba339	0.008522802
57	0xbc83c2b0	-0.016084045
58	0xbc00a61c	-0.007852104
59	0xbb9877f6	-0.0046529723
60	0xbcbfeabd	-0.023427362
61	0x3cdcb629	0.02694233
62	0x3bdaf0f7	0.0066815573
63	0xbc944898	-0.018101022
64	0x3bda4de1	0.006662116
65	0xbcaabe19	-0.020842599
66	0xbceb509a	-0.028724957
67	0xbcf6314b	-0.030052802
68	0x3c77c708	0.015123136
69	0xbc756fb2	-0.0149802435
70	0xbcbc7bc4	-0.023008235
71	0xbcb93933	-0.022610283
72	0xbadde8d3	-0.0016930349
73	0xbc59a9d9	-0.013285124
74	0x3b08ec2a	0.0020892718
75	0x3c0de89d	0.008661416
76	0x3c54a069	0.012977698
77	0x3d1b02d4	0.037844494
78	0xbbf09877	-0.007342394
79	0xbc8d1804	-0.017223366
80	0xbb8f18fa	-0.004366991
81	0x3c287696	0.010282179
82	0x3c1c6d70	0.009547576
83	0x3ca3c8f5	0.019993285
84	0x3c681a45	0.014166419
85	0xbccceae1	-0.025014343
86	0x3b55e8a9	0.0032639897
87	0x3c8de377	0.017320378
88	0x3cb4f2ec	0.02208849
89	0xbc9db944	-0.01925338
90	0xbc7889fc	-0.015169617
91	0x39f77fc0	0.00047206692
92	0x3c80a5c9	0.015704053
93	0x3cc8108d	0.024421955
94	0x3cce6821	0.025196137
95	0x3bdb8563	0.0066992505
96	0x3cf71945	0.030163417
97	0x3a93f70e	0.0011288838
98	0x3c09f66f	0.008420571
99	0x3b94d53e	0.004542022
100	0xbc8feafa	-0.0175681
101	0x3cb3970a	0.021922607
102	0xbbc2c691	-0.005944081
103	0x3c9d3dab	0.019194445
104	0x3b3a7d48	0.002845602
105	0x3c8f281a	0.017475177
106	0xbcaaec12	-0.02086452
107	0x3beeb084	0.007284226
108	0xbc2b1d2c	-0.010443967
109	0x3cd50f31	0.02600822
110	0x3c801dec	0.015639268
111	0x3b8ead89	0.004354183
112	0x3bc8cbbc	0.0061278027
113	0x3af9765f	0.001903247
114	0x3cfcccb4	0.030859329
115	0x3cb5f661	0.02221221
116	0x3c894763	0.016757673
117	0xbb841d70	-0.0040318295
118	0xbca2d5e7	-0.019877387
119	0xbaeafea5	-0.0017928673
120	0xbc8adb41	-0.016950252
121	0xbcb7488a	-0.022373457
122	0xb85dec43	-5.2910542e-05
123	0x3ca4f695	0.02013711
124	0x3ad377ba	0.0016133704
125	0xbc818c1a	-0.015813876
126	0xbaac4726	-0.0013143762
127	0xbccd0480	-0.02502656
128	0x3cb79ef6	0.022414666
129	0x3be2f0ff	0.0069257016
130	0x3c3e73dc	0.011624303
131	0xbcf2693e	-0.029591199
132	0x3cdd42ad	0.027009333
133	0xbcc3d50d	-0.023905301
134	0x3cf83ad8	0.030301496
135	0x3c29647f	0.010338902
136	0x3c8c3649	0.017115729
137	0x3cfcdf64	0.03086824
138	0xba29efac	-0.0006482552
139	0x3bf4eefd	0.0074747787
140	0xbc57486f	-0.013139828
141	0xbc88e4f2	-0.016710732
142	0xbc137905	-0.009001021
143	0x3c990a2b	0.018681606
144	0x385d407f	5.2750573e-05
145	0xbc1892fc	-0.009312388
146	0x3d05c6b9	0.03266022
147	0x3c9647ad	0.018344725
148	0xbc6af34d	-0.014340234
149	0x3c02ffbc	0.007995542
150	0x3a92d975	0.0011203723
151	0xbce61fa7	-0.028091265
152	0x3ba6fc72	0.005096012
153	0x3b9d5f18	0.004802596
154	0x3bf718a4	0.007540779
155	0xba13293c	-0.00056137494
156	0x3cc9487f	0.024570702
157	0x3cec0d06	0.028814804
158	0x376aa95b	1.3986918e-05
159	0x3ca2f341	0.019891383
160	0xbccd33cd	-0.025049115
161	0x3ce92ea6	0.028464627
162	0xbbdb74af	-0.0066972594
163	0x3cfab6c4	0.030604728
164	0xbc4ddcf5	-0.012564887
165	0xbcf89f32	-0.030349348
166	0x3c839b27	0.016065193
167	0x3c0d6b8b	0.008631597
168	0x3b2be1e4	0.002622717
169	0xbb801dd5	-0.0039098063
170	0x3c19f48c	0.009396683
171	0xbba5cead	-0.005060038
172	0x3ca2455d	0.019808466
173	0xbb47c052	-0.0030479622
174	0x3c9e72f8	0.01934193
175	0x3b98b221	0.0046599065
176	0xbc983263	-0.018578714
177	0xbc14bf28	-0.009078778
178	0x3be0af13	0.006856808
179	0xbcf09178	-0.02936624
180	0xbcb4a11d	-0.022049481
181	0x3aadd9c1	0.0013263748
182	0xbceca61b	-0.028887799
183	0x3cb6d9da	0.022320677
184	0xbb93d678	-0.0045116507
185	0xbcad8706	-0.021182548
186	0xbc35c86f	-0.01109515
187	0x3c6037ac	0.013685148
188	0x3cae9b30	0.021314234
189	0xbc33606b	-0.010948281
190	0xbc8116b6	-0.0157579
191	0x3c6acc99	0.014331006
192	0xbc538af3	-0.012911546
193	0xbc979dae	-0.018507805
194	0x3c49d8bd	0.012319741
195	0xbc9a9d02	-0.018873695
196	0xbcc01108	-0.023445621
197	0x3c38ae72	0.01127206
198	0xbc3086cb	-0.010774325
199	0x3b99f020	0.0046978146
200	0xbbd8617b	-0.0066034175
201	0x3c087e89	0.00833095
202	0x3c1a259f	0.009408384
203	0xbc8e4b01	-0.017369749
204	0x3cc458c2	0.023968104
205	0xbc6f627a	-0.014610881
206	0xbbb3fb9d	-0.005492641
207	0xbc0753d7	-0.008259735
208	0xbbe559f7	-0.00699925
209	0xbcdbe80c	-0.026844047
210	0xbcb0965f	-0.021556078
211	0x3c9875bc	0.018610828
212	0xbc37cc20	-0.011218101
213	0xb79ec728	-1.8927807e-05
214	0x3bc9429c	0.0061419737
215	0xbc1e9733	-0.009679603
216	0xb9d2398a	-0.0004009719
217	0x3cd574be	0.026056644
218	0x3c98b159	0.018639253
219	0xbc3f2538	-0.0116665885
220	0xbc307fcf	-0.010772659
221	0x3caed9de	0.021344122
222	0xbc2a7946	-0.01040489
223	0xbcc53269	-0.024071889
224	0xbc77db9e	-0.015128044
225	0xbcfbbcbb	-0.030729642
226	0x3be4bd41	0.0069805686
227	0x3b648786	0.0034870817
228	0x3cd80c1a	0.026372958
229	0x3b467b27	0.0030285807
230	0xbc8d9b47	-0.017285956
231	0xbaaf0bac	-0.0013354919
232	0x3cbe4d63	0.02323026
233	0xbc827119	-0.01592307
234	0x3cd5a0be	0.026077624
235	0x3c3d6d9b	0.0115617765
236	0xbcf4a390	-0.029863149
237	0x3cfed5cf	0.031107811
238	0xbc64fce1	-0.013976307
239	0x3a93eb2b	0.0011285295
240	0x3d03c1a4	0.032167092
241	0xbcfbf55b	-0.030756643
242	0x3c9878ad	0.01861223
243	0x3a9f5efd	0.0012159046
244	0xbc9dca28	-0.019261435
245	0xbce08a11	-0.027409585
246	0x3af12350	0.0018397365
247	0x3bb86196	0.0056268675
248	0xbcb46cda	-0.02202456
249	0xbcb0b541	-0.021570804
250	0x3c549bca	0.012976596
251	0x3bc9dc85	0.006160321
252	0xbc49726b	-0.012295346
253	0x3c0d6873	0.00863086
254	0xbcacbf67	-0.021087361
255	0x3c6c5f82	0.014427068

hidden1.bias f4 [100]
0	0xbcbc7585	-0.023005256
1	0xbc0f74ad	-0.008755845
2	0x3b3538be	0.002765223
3	0xbc74182e	-0.014898343
4	0x3c817ee5	0.015807578
5	0x3c2730a8	0.010204472
6	0xbb0f07cf	-0.0021824723
7	0xbca94e63	-0.02066726
8	0x3b95551b	0.0045572645
9	0x3c774c86	0.015093928
10	0xbac06012	-0.0014677069
11	0xbc3aae44	-0.011394087
12	0xbb89a09d	-0.004200055
13	0x3c43f25a	0.011959637
14	0xbd060c7d	-0.032726754
15	0xbc227b6b	-0.00991712
16	0xbc63ba51	-0.013899402
17	0x3cc3cad6	0.02390043
18	0xbc95bf27	-0.018279625
19	0xbc197ab7	-0.009367636
20	0xbad38242	-0.0016136842
21	0xb90744e8	-0.00012900273
22	0xbb6f20ff	-0.0036488173
23	0xbd0aa10b	-0.03384499
24	0xba813da4	-0.0009860289
25	0x3cd8ee65	0.026480863
26	0xbbd296ce	-0.0064266687
27	0x3b83b6c6	0.004019591
28	0x3caedcd8	0.02134554
29	0x3c6d667b	0.014489765
30	0xbbb11d80	-0.005405128
31	0x3ca092d9	0.019601272
32	0x3cb6caaa	0.022313435
33	0xbc7da8a5	-0.0154821025
34	0xbc912ac0	-0.01772058
35	0x3d039e56	0.032133423
36	0x3ce0f8d7	0.027462406
37	0x3d12c005	0.035827655
38	0xbc097ca8	-0.008391537
39	0xbbe03c06	-0.006843093
40	0xbc8baf53	-0.017051375
41	0x3c82022d	0.015870178
42	0xbbca26dc	-0.006169183
43	0x3c7241e8	0.014786221
44	0xbd1ff0f0	-0.039048135
45	0xbc17a267	-0.009255028
46	0x3ba53b2f	0.0050424556
47	0x3c9cd935	0.019146541
48	0xbccf70a0	-0.025322258
49	0xbbeb0427	-0.007172126
50	0x3d6f8a5f	0.05848157
51	0xbcefb59f	-0.029261408
52	0x3c33fa14	0.010984916
53	0xbd093713	-0.03349979
54	0xbaf1702f	-0.0018420274
55	0x3cb854d1	0.022501381
56	0xbc6ab63a	-0.014325673
57	0xbbdacfd4	-0.006677607
58	0xbb03f998	-0.0020137783
59	0xbbbf8ccd	-0.005845642
60	0x3ca7723e	0.020440217
61	0x3cc813df	0.024423538
62	0x3cc61926	0.024181914
63	0xbc280b71	-0.010256634
64	0x3cc226dd	0.023700172
65	0x3cc9c422	0.024629656
66	0xbc8fc3a1	-0.017549338
67	0x3ce1d1f1	0.027565928
68	0xbc80a5af	-0.015704004
69	0x3caacf42	0.020850781
70	0xbbcf5bf4	-0.0063281003
71	0xbbdca65b	-0.0067336983
72	0xbb8c8320	-0.0042880923
73	0x3c00bde1	0.007857771
74	0x3cf5a7aa	0.029987175
75	0xbc5b9f46	-0.013404673
76	0xbb8c23e3	-0.004276739
77	0xbd2d5fe8	-0.04232779
78	0x3cb77ae4	0.022397466
79	0x3c4c929d	0.012486127
80	0xbc326670	-0.010888681
81	0x3cd4025a	0.025880028
82	0x3bd99cce	0.006641007
83	0xbb2c5c9d	-0.002630032
84	0x3cd07069	0.025444226
85	0xbb7b04f2	-0.0038302508
86	0xbb23fe2a	-0.002502332
87	0x3c7c6160	0.015404075
88	0xbc9ea38c	-0.019365095
89	0x3d1f3afe	0.03887462
90	0x3c9a1708	0.01880981
91	0xbc3ffe71	-0.011718378
92	0x3d108bc4	0.03528954
93	0xbc487736	-0.012235453
94	0x3ca6da88	0.020367876
95	0xbba3a6b8	-0.0049942397
96	0x3d8905eb	0.06690582
97	0x3ca39e4e	0.019972946
98	0xbc92ead0	-0.017934233
99	0x3cac7131	0.021050068

hidden2.weight f4 [50, 100]
0	0x3daad5e8	0.08341581
1	0xbd4320a3	-0.047638547
2	0x3d9a66b0	0.07539117
3	0x3bc79a4d	0.006091392
4	0x3d959775	0.07304279
5	0xbc797438	-0.015225463
6	0x3d37e68a	0.044897594
7	0xbc93d6c0	-0.018046737
8	0xbd5aae97	-0.053389158
9	0x3d1ee42a	0.038791813
10	0xbd1ecafe	-0.038767807
11	0x3bb9ff4d	0.005676186
12	0x3ca797bd	0.020458097
13	0x3cbde14d	0.02317872
14	0x3d20cc17	0.039257135
15	0xbc5db908	-0.013532884
16	0xbcbfebc0	-0.023427844
17	0xbd6472d9	-0.05577359
18	0x3c7d4e33	0.015460539
19	0x3d06165f	0.03273618
20	0x3d9ad33d	0.07559822
21	0x3c4edb67	0.012625552
22	0x3d2059be	0.039148085
23	0x3d8994fa	0.06717868
24	0x3d233d25	0.039853234
25	0xbd80e3d2	-0.06293453
26	0x3bcefe00	0.0063169003
27	0x3d3d5160	0.046220183
28	0xbdad477d	-0.08460901
29	0x3daab5dd	0.08335469
30	0x3d2cd0b4	0.042191222
31	0x3da435d0	0.080180764
32	0xba71099a	-0.0009194851
33	0xbdbb0b03	-0.0913296
34	0x3d1f4100	0.03888035
35	0x3b1aea81	0.002363831
36	0xbd926871	-0.07148827
37	0x3d9b15aa	0.075724915
38	0xbd858a95	-0.06520573
39	0xbda4e417	-0.08051317
40	0x3dbf36b0	0.09336603
41	0xbd5bcfb0	-0.053664863
42	0xbce91093	-0.028450286
43	0x3d8ea185	0.06964401
44	0x3d047603	0.032339107
45	0x3d677f2d	0.05651777
46	0x3d0055b5	0.031331737
47	0xbd9c9d45	-0.07647184
48	0xbb196233	-0.0023404479
49	0xbd7b6007	-0.061370876
50	0xbcec6a65	-0.028859327
51	0xbd3173d0	-0.043323338
52	0xbd19aa0d	-0.03751569
53	0xbdbf0032	-0.09326209
54	0x3c172d97	0.009227178
55	0xbd864b85	-0.06557373
56	0xbd02ae7d	-0.031904686
57	0x3d56579d	0.05232965
58	0xbb9d3633	-0.004797721
59	0x3d08c9a7	0.033395436
60	0xbbf45880	-0.007456839
61	0xbda7d30a	-0.081945494
62	0x3d79648f	0.060886916
63	0xbd8d12cf	-0.06888353
64	0xbd579855	-0.05263551
65	0x3cee907e	0.029121634
66	0xbdc4c285	-0.09607414
67	0xbd32c340	-0.043643236
68	0x3cbf2ee0	0.023337781
69	0x3dc8acea	0.09798606
70	0x3d8b0877	0.06788724
71	0x3d2d704a	0.042343415
72	0x3d85a3be	0.06525372
73	0xbd17982d	-0.03701036
74	0x3d1e14f0	0.038594186
75	0x3da5c513	0.080942295
76	0x3db9a16f	0.09063994
77	0xbd024950	-0.031808197
78	0xbca96d33	-0.020681953
79	0xbd315777	-0.043296304
80	0x3dc90a77	0.09816449
81	0x3d849265	0.06473235
82	0xbb5b7400	-0.003348589
83	0xbd9f9c0d	-0.07793436
84	0x3d8ac1e8	0.06775266
85	0xbcad3839	-0.021144973
86	0x3a7c6af4	0.00096289744
87	0xbd8d52f8	-0.06900591
88	0x3d599753	0.05312283
89	0xbd8a182c	-0.06742892
90	0x3db2576d	0.087080814
91	0xbdbd2b7b	-0.09236809
92	0x3ca5fdc7	0.020262612
93	0x3dacacdb	0.08431407
94	0xbcf3f4a7	-0.029779745
95	0xbd6ac402	-0.057315834
96	0xbd617b03	-0.055048954
97	0xbd198584	-0.037480846
98	0x3d5b8237	0.05359098
99	0xbda38953	-0.07985177
100	0xbceae0c9	-0.028671639
101	0x3d26df39	0.040740225
102	0x3d149420	0.036274076
103	0xbc44ecbb	-0.012019332
104	0x3d4506a3	0.048102032
105	0xbd9d145d	-0.076698996
106	0x3ca80496	0.02051
107	0xbbf10e37	-0.007356431
108	0x3dba3b6b	0.09093364
109	0x3d1e3575	0.0386252
110	0xbc813d11	-0.015776189
111	0xbdc1fd9c	-0.094722
112	0x3d0c52db	0.034258705
113	0x3cc5b082	0.024132017
114	0x3d33068a	0.043707408
115	0xbb49cab6	-0.003079099
116	0x3a8a4d29	0.001055156
117	0xbdb98fec	-0.09060654
118	0xbc609a69	-0.013708689
119	0xbcbbd0b2	-0.022926662
120	0x3b40b0a6	0.0029402166
121	0x3cb76391	0.022386344
122	0x3d01cdfc	0.031690583
123	0xbd01f52d	-0.03172796
124	0xbdbcae9e	-0.09212993
125	0xbd2efc04	-0.04272081
126	0x3de6cfa1	0.11270071
127	0x3d33ef54	0.043929413
128	0x3d048c7c	0.03236054
129	0x3a67cbe7	0.00088423345
130	0xbdcec004	-0.10095218
131	0xbd794ff8	-0.06086728
132	0x3d96ff2a	0.073728874
133	0xbd600954	-0.054696396
134	0x3d0e53c5	0.034747858
135	0x3d8bc6b5	0.0682501
136	0xbd462c0d	-0.048381854
137	0x3bdd8c5c	0.006761117
138	0xbb779d11	-0.0037782828
139	0x3d37bed5	0.044859726
140	0xbdad6784	-0.0846701
141	0xbdac8734	-0.084242254
142	0x3de22786	0.11042695
143	0x3c06f78a	0.008237729
144	0x3cdafed1	0.026732834
145	0xbbc32eb6	-0.005956496
146	0xbdaf092c	-0.08546671
147	0x3d25048d	0.040287543
148	0xbd8bfe9e	-0.06835674
149	0xbd9f897a	-0.077898934
150	0xbda64ecb	-0.08120497
151	0x3d1faa55	0.0389808
152	0x3c459f8d	0.012061966
153	0x3d8c1825	0.06840543
154	0x3d8426d5	0.06452719
155	0x3cdfe50a	0.027330894
156	0xbd6d1786	-0.05788376
157	0x3d69af2e	0.05705183
158	0xbd103d57	-0.03521475
159	0xbd1bcf28	-0.038039356
160	0xbd367292	-0.044542857
161	0xbd9823f9	-0.07428736
162	0xbd88e896	-0.06684987
163	0x3c1e64f2	0.009667622
164	0x3cb3b32b	0.02193602
165	0x3d551fcc	0.052032277
166	0xbd8e025c	-0.06934044
167	0xbd5f66fb	-0.05454157
168	0x3c47738e	0.0121735465
169	0x3db44035	0.08801309
170	0x3d804ffa	0.06265254
171	0x3d80e535	0.06293718
172	0xbd6b68c4	-0.05747296
173	0x3db239da	0.087024406
174	0x3dc47176	0.095919535
175	0xbe0f83a3	-0.14015059
176	0xbd517629	-0.051138077
177	0x3d862376	0.065497324
178	0x3dc6a6c8	0.0969978
179	0xbd8cbeb4	-0.06872311
180	0xbd1c266f	-0.03812259
181	0xbd3c6618	-0.0459958
182	0xbd926714	-0.07148567
183	0x3e088558	0.13332117
184	0x3dc8c353	0.0980288
185	0x3c41d30d	0.011830104
186	0x3d9453c0	0.072425365
187	0x3d873de0	0.066035986
188	0x3da3132d	0.07962642
189	0x3d81502e	0.06314121
190	0x3da8831e	0.082281336
191	0x3d69901a	0.05702219
192	0x3dfd7680	0.12376118
193	0x3c1b43cf	0.009476616
194	0x3c09f820	0.008420974
195	0xbc15e327	-0.009148396
196	0xbcb38ff1	-0.021919223
197	0xbc8510ec	-0.01624342
198	0x3bf777e4	0.007552134
199	0x3dae705f	0.08517527
200	0x3cff5fd1	0.031173619
201	0xbd1d105d	-0.038345683
202	0x3d803cf3	0.06261625
203	0xbe02b8b3	-0.1276577
204	0xbdb7139b	-0.08939286
205	0xbcdd7fe9	-0.027038531
206	0x3d127022	0.03575147
207	0x3cec86a4	0.028872795
208	0x3d5be75c	0.05368744
209	0x3e0c2090	0.13684297
210	0xbcf446fc	-0.029819004
211	0xbe17b444	-0.1481486
212	0x3d439ba3	0.04775585
213	0xbcffa5e1	-0.031207027
214	0x3e51f59a	0.20503846
215	0xbe3e2624	-0.18569237
216	0xbac1d06c	-0.0014786846
217	0xbd94188e	-0.07231246
218	0xbbdfdab3	-0.006831491
219	0xbd5a6f56	-0.053328834
220	0xbe27c555	-0.1638387
221	0xbcc8a3cc	-0.024492167
222	0xbb599b82	-0.0033204262
223	0x3d2b6a8c	0.041849658
224	0xbdcbbbbf	-0.09947919
225	0x3b956bb6	0.0045599593
226	0x3e3bccc7	0.18339835
227	0x3cdf6c96	0.027273457
228	0xbd98165f	-0.07426142
229	0xbdac4591	-0.08411706
230	0xbe5c574a	-0.21517673
231	0xbdb2a997	-0.08723753
232	0x3cc0ec88	0.023550287
233	0xbd240791	-0.04004628
234	0xbc327b5a	-0.010893667
235	0x3d1dda30	0.038538158
236	0x3da95eb3	0.082700156
237	0x3e0d0f50	0.13775373
238	0xbe084da6	-0.1331087
239	0x3c40e8db	0.011774267
240	0x3da16de8	0.07882291
241	0xbd9f09b2	-0.07765521
242	0x3dc2a560	0.09504199
243	0x3da85bdd	0.082206465
244	0x3e230af3	0.15922146
245	0xbd34565b	-0.044027667
246	0xbe2965d2	-0.16542748
247	0x3df68334	0.12036744
248	0x3d2d4691	0.042303625
249	0x3d067e39	0.03283522
250	0x3d21922e	0.03944605
251	0x3e1fd606	0.15608987
252	0x3c7123ea	0.014718035
253	0x3c0e78d7	0.008695803
254	0xbcf7ec02	-0.030263904
255	0x3d321dde	0.043485515

hidden2.bias f4 [50]
0	0xbd124e1f	-0.035719033
1	0x3cd01d64	0.02540464
2	0x3dd20159	0.10254163
3	0x3d3ee8f6	0.046608888
4	0x3cc6aede	0.024253305
5	0x3d0085a6	0.031377457
6	0x3ce8c606	0.028414737
7	0x3b4329f2	0.002977964
8	0xbd00d4b3	-0.031452846
9	0x3d50d134	0.05098076
10	0x3d294a56	0.041330658
11	0xbdc51cd5	-0.0962464
12	0xbda1dcc2	-0.07903434
13	0x3d19311e	0.037400357
14	0xbd9eb543	-0.07749417
15	0x3d4e2584	0.050328746
16	0xbd77eeed	-0.06053059
17	0x3d8161f8	0.06317514
18	0x3c7881a7	0.01516763
19	0x3d807679	0.06272597
20	0x3dc90952	0.09816231
21	0xbdc47c15	-0.09593979
22	0x3a1e68b8	0.0006042826
23	0xbdc1f5d3	-0.094707154
24	0xbd324bf7	-0.043529477
25	0xbd6cce23	-0.057813775
26	0x3c7cbb2d	0.015425486
27	0x3d1cb67b	0.038259964
28	0x3cab61a0	0.020920575
29	0x3d61101f	0.054947015
30	0x3cf45ff3	0.029830908
31	0x3dcafa81	0.09911061
32	0x3d2297e0	0.03969562
33	0xbdcc3938	-0.09971851
34	0xbcee67f6	-0.029102307
35	0x3c9471b7	0.01812063
36	0x3d18efe9	0.03733817
37	0x3c7c5253	0.015400487
38	0x3de26e9d	0.11056254
39	0x384f7e01	4.9469996e-05
40	0x3cbf288d	0.023334766
41	0xbdcc10ca	-0.0996414
42	0x3dcf0130	0.101076484
43	0xbd6c5853	-0.05770142
44	0xbcbff51d	-0.023432309
45	0xbc87ba55	-0.016568342
46	0x3c13e429	0.009026566
47	0x3d09465b	0.03351436
48	0x3dbd1fbf	0.09234571
49	0x3bb42d5d	0.005498572

hidden3.weight f4 [25, 50]
0	0x3df507b4	0.1196436
1	0x3d81668a	0.06318386
2	0xbcdb6d2b	-0.026785454
3	0x3d9869c4	0.07442048
4	0xbd50ec18	-0.051006407
5	0xbdca7b2c	-0.098867744
6	0x3de0c375	0.109747805
7	0x3cefb080	0.029258966
8	0xbd8bccf3	-0.068262
9	0xbd5699a3	-0.052392613
10	0x3d102107	0.035187747
11	0xbd947002	-0.07247926
12	0xbdba8c7e	-0.09108828
13	0xbde26dde	-0.11056112
14	0xbdf28098	-0.118409336
15	0x3de9c2c7	0.11414104
16	0xbd7a0632	-0.061041065
17	0x3dad6308	0.08466154
18	0xbd4dd54d	-0.050252248
19	0xbdbffdb9	-0.09374566
20	0x3dda5d5f	0.106623404
21	0x3debef87	0.115202956
22	0xbdba9088	-0.091095984
23	0xbd478002	-0.048706062
24	0xbd813a88	-0.06309992
25	0x3df65e7b	0.120297395
26	0xbdcfadde	-0.101405844
27	0x3e038f42	0.12847617
28	0x3c93fd43	0.0180651
29	0x3d99e16a	0.075136974
30	0xbd0db365	-0.034594912
31	0xbd3e8e8e	-0.04652267
32	0x3ca0adf6	0.019614201
33	0x3d27786b	0.040886324
34	0x3de9ea84	0.114216834
35	0xbe0ebddd	-0.13939615
36	0xbd9c14d2	-0.07621159
37	0xbb2bd687	-0.0026220398
38	0x3befe92d	0.007321498
39	0xbdb56b9d	-0.08858416
40	0x3ca5e226	0.020249438
41	0x3df58e6f	0.11990058
42	0xbe06fee1	-0.13183166
43	0xbd3cbae9	-0.04607669
44	0xbd86de9a	-0.06585427
45	0x3de59fe7	0.112121396
46	0xbdd24e16	-0.102688
47	0xbdc6cd85	-0.097071685
48	0xbd1f03e0	-0.038822055
49	0xbdb656a6	-0.08903246
50	0xbdfbbb2b	-0.12291559
51	0x3d6446f3	0.055731725
52	0xbc96a2ac	-0.018388115
53	0xbd6f7200	-0.05845833
54	0xbdf020b6	-0.11724989
55	0xbde25258	-0.11050862
56	0x3d13d428	0.036091
57	0xbe014c37	-0.1262673
58	0x3d82da60	0.06389308
59	0x3e2daabf	0.16959666
60	0x3dcee552	0.10102333
61	0xbdcae799	-0.09907455
62	0x3d462bcd	0.048381615
63	0x3dbfe2c8	0.09369427
64	0x3d35dad6	0.04439815
65	0xbd8eba83	-0.06969168
66	0x3e0b4760	0.13601446
67	0x3db9c96e	0.09071623
68	0xbd0d08b2	-0.03443212
69	0x3c3b236e	0.011422021
70	0x3d14ad73	0.036298227
71	0xbd9348b4	-0.071916014
72	0xbbd62f59	-0.006536406
73	0xbddc15b5	-0.10746328
74	0x3d87abb5	0.066245474
75	0x3dc8343e	0.097755894
76	0xbdb187a7	-0.08668452
77	0x3d239fe7	0.039947417
78	0x3e4e9d57	0.20177208
79	0x3df2e2e0	0.11859679
80	0xbdd10c0a	-0.102073744
81	0xbe29ff3f	-0.16601275
82	0x3dc8207e	0.097718224
83	0xbdce6ae3	-0.10078981
84	0xbd4eee35	-0.05052014
85	0xbd7b9f3f	-0.061431166
86	0xbcc9e830	-0.024646848
87	0x3d6d5033	0.057937812
88	0xbc903de6	-0.01760764
89	0x3d3a39fb	0.04546545
90	0x3d7c8caf	0.061657604
91	0x3d6a84e7	0.05725565
92	0x3e068fa7	0.13140737
93	0x3d0bdbaa	0.034145035
94	0x3de46f49	0.111540385
95	0xbe05992b	-0.1304671
96	0x3d5b3a79	0.05352256
97	0x3df3f754	0.119124085
98	0x3d01374d	0.03154688
99	0x3d5f43ed	0.05450814
100	0xbd63af54	-0.055587128
101	0x3d3dc196	0.046327196
102	0x3e08d787	0.13363467
103	0x3dfdbbbe	0.123893246
104	0x3d959e90	0.07305634
105	0x3d2c1b7d	0.042018402
106	0xbdad423d	-0.084598996
107	0xbdb8f752	-0.090315476
108	0xbcb8af6d	-0.022544587
109	0x3daf3521	0.085550554
110	0x3ca5d465	0.02024288
111	0xbd728705	-0.059210796
112	0x3d263338	0.04057619
113	0x3e07b8ea	0.13254133
114	0x3d91e051	0.07122863
115	0xbe0931b4	-0.13397866
116	0x3cbc2909	0.022968786
117	0xbde0dbf5	-0.109794535
118	0xbda09a86	-0.07841973
119	0x3ddfc50e	0.10926257
120	0x3da26a5c	0.07930443
121	0xbb4c898b	-0.0031209912
122	0x3d7915ac	0.060811684
123	0xbd27691c	-0.040871724
124	0xbdbe46a7	-0.092908196
125	0xbd506dc4	-0.05088593
126	0x3dd99f84	0.10626128
127	0xbda9524b	-0.08267649
128	0x3ddff93b	0.10936209
129	0xbd5c72c7	-0.053820398
130	0xbc3f9da0	-0.011695296
131	0xbda09278	-0.07840437
132	0xbdde6705	-0.10859493
133	0x3e026af5	0.12736113
134	0x3bcc1c5d	0.006228967
135	0xbd30ce9d	-0.04316579
136	0xbd400ab2	-0.0468852
137	0x3e065eae	0.13122055
138	0x3c3cfa20	0.011534244
139	0x3d6c72f1	0.057726804
140	0x3dbeecc3	0.093225025
141	0x3a29a169	0.00064708904
142	0xbe025311	-0.12727
143	0xbd6ef8d5	-0.058342773
144	0xbddc205b	-0.10748359
145	0x3be88d05	0.007096889
146	0xbe0c4516	-0.13698229
147	0xbcb6e142	-0.022324208
148	0x3ddf7341	0.10910655
149	0x3b1de7e2	0.0024094512
150	0xbbf305ce	-0.0074164635
151	0xbd9c2871	-0.07624901
152	0x3e17780a	0.14791885
153	0xbc10b421	-0.008832009
154	0x3da829e1	0.08211113
155	0x3e15f28b	0.14643304
156	0x3db7107d	0.08938692
157	0xbc621542	-0.013799014
158	0x3da34b05	0.07973293
159	0xbde8d286	-0.11368279
160	0xbcb96e03	-0.022635465
161	0x3d9d1ee8	0.076719105
162	0xbe0a6c74	-0.13517934
163	0xbcf31dc6	-0.029677283
164	0x3cfab554	0.030604042
165	0x3dfc4690	0.12318146
166	0xbc3974eb	-0.011319379
167	0x3db2f7c0	0.08738661
168	0xba616db2	-0.0008599415
169	0xbe0dd391	-0.13850237
170	0x3d0080c6	0.031372808
171	0x3dfd3637	0.12363856
172	0x3d2decbd	0.0424621
173	0x3c2754be	0.010213075
174	0xbddb3480	-0.10703373
175	0xbd0b778e	-0.034049563
176	0x3ddb6706	0.107130095
177	0xbd340fb6	-0.043960296
178	0x3d185cb6	0.03719779
179	0xbdb578df	-0.08860945
180	0xbc9bc57d	-0.019015068
181	0x3e19be52	0.15014008
182	0xbba69983	-0.005084218
183	0xbdc80b20	-0.09767747
184	0x3db31020	0.0874331
185	0xbce78336	-0.028260808
186	0x3b0876ec	0.0020822836
187	0xbd62092f	-0.05518454
188	0x3da597c4	0.080855876
189	0x3e1288f2	0.14310053
190	0x3dff2674	0.12458506
191	0x3e077016	0.13226351
192	0xbdf458f4	-0.11931029
193	0xbd927878	-0.07151884
194	0x3dca11b8	0.09866661
195	0xba98fdde	-0.0011672338
196	0xbd99d11a	-0.07510586
197	0xbd89ebd6	-0.06734435
198	0x3c730bd8	0.014834367
199	0xbd5635ce	-0.052297406
200	0x3c333834	0.010938693
201	0x3e21fa68	0.15818179
202	0x3e7e5c65	0.24839933
203	0xbdfcd9b0	-0.12346208
204	0xbda67752	-0.08128227
205	0x3d71b1de	0.059007518
206	0x3e186235	0.14881213
207	0x3d25c403	0.040470134
208	0xbd05d9be	-0.03267836
209	0xbd36007d	-0.04443406
210	0xbd0e5532	-0.034749217
211	0xbdfc1cf9	-0.123102136
212	0xbc82e5dd	-0.015978748
213	0x3db1e183	0.08685591
214	0x3dae2ddb	0.0850484
215	0x3d5a68fe	0.053322785
216	0xbdea75df	-0.114482634
217	0x3e7ff2d3	0.24994974
218	0xbd57647e	-0.05258607
219	0xbe18c7b6	-0.14919934
220	0x3cacbb50	0.021085411
221	0x3d0f090d	0.03492074
222	0x3d375f62	0.0447687
223	0x3dccf78f	0.100081556
224	0xbddb6223	-0.107120775
225	0xbca8938b	-0.020578166
226	0xbd9b810e	-0.075929746
227	0xbdf9449a	-0.12171288
228	0x3d3981fb	0.045289975
229	0xbe2f60aa	-0.17126718
230	0x3e035e10	0.12828851
231	0x3e0a36e6	0.13497505
232	0xbdb0e461	-0.0863731
233	0xbdeae71d	-0.114698626
234	0x3ca18b25	0.01971967
235	0xbd983b9c	-0.074332446
236	0xbe16d337	-0.1472901
237	0xbe0b172f	-0.13583063
238	0x3e55f35c	0.20893615
239	0x3db7f206	0.08981709
240	0x3dacba12	0.084339276
241	0x3d89265f	0.06696772
242	0xbe520c47	-0.20512496
243	0x3cb06cae	0.021536198
244	0xbd587952	-0.052850075
245	0xbe057f3e	-0.1303682
246	0xbdab83ba	-0.08374734
247	0xbdcfbf36	-0.101438925
248	0xbd6b28d0	-0.05741197
249	0x3d27b9c9	0.040948663
250	0x3e015f25	0.12633951
251	0x3d989a9a	0.07451363
252	0xbe01c535	-0.12672885
253	0x3de7500f	0.11294567
254	0xbd789d2a	-0.06069676
255	0x3da2a238	0.07941097

hidden3.bias f4 [25]
0	0xbd1311c7	-0.035905626
1	0xbd090925	-0.033455987
2	0xbe0a5b42	-0.13511375
3	0x3cf37581	0.029719116
4	0x3d975b36	0.07390444
5	0xbdb20792	-0.0869285
6	0xbd94e1d1	-0.072696336
7	0xbd8ed4a5	-0.069741525
8	0xbbec1c42	-0.007205517
9	0xbc8955eb	-0.016764602
10	0x3d8be8a2	0.068314806
11	0xbdbb3587	-0.09141069
12	0x3e331e4f	0.1749203
13	0x3d96debc	0.07366702
14	0xbdd8c76e	-0.10584913
15	0xbdc92b02	-0.09822656
16	0xbdc9d285	-0.098546065
17	0xbca46c68	-0.020071223
18	0xbd876172	-0.06610383
19	0xbe07dd81	-0.13268091
20	0x3ed187dd	0.40923968
21	0xbd07d13d	-0.03315853
22	0xbe06ac4e	-0.13151667
23	0xbd3130ac	-0.043259308
24	0xbd945653	-0.072430275

output.weight f4 [1, 25]
0	0xbdfc9260	-0.12332606
1	0x3e75a5ce	0.2398903
2	0x3e3dc64f	0.1853268
3	0xbdc7edb5	-0.09762136
4	0xbe209c31	-0.15684582
5	0xbe3da67b	-0.18520539
6	0xbd2645e0	-0.04059398
7	0xbd94d3d0	-0.072669625
8	0xbe0f26ac	-0.13979596
9	0x3c34009a	0.010986472
10	0x3ed0d67a	0.40788633
11	0xbe03efa5	-0.12884386
12	0x3e0604f0	0.13087821
13	0x3d793020	0.06083691
14	0x3db57b0a	0.088613585
15	0xbe64d850	-0.22348142
16	0x3de18d6a	0.11013301
17	0xbe1b036b	-0.15138023
18	0x3d9c422a	0.07629807
19	0x3e2ccf42	0.16875938
20	0x3eaf5930	0.34247732
21	0xbe351e3f	-0.17687319
22	0xbe20a127	-0.15686475
23	0x3e47f5d0	0.19527364
24	0xbe27345d	-0.16328569
