taskA3/best_model_weights_fold_2.pth (torch, 429208 bytes, 7 tensors)

hidden1.weight f4 [100, 1000]
000000 81 6b cf bc 52 5e 8f 3a 25 21 cc bb ca 23 3b 3c
       -0.025319817 0.0010938144 -0.006229537 0.011422107
000010 a3 1d eb 3c 66 19 95 3c b0 f0 c3 bb 4a e6 ad 3c
       0.028700655 0.018200587 -0.00597962 0.021227974
000020 f8 89 9a 3c 31 2b cb bc 1d bf 74 3b 8f de 15 3c
       0.018864617 -0.024800869 0.0037345358 0.0091473
000030 29 cf 41 bc 66 31 8c 3c 0d 0a d1 bc f5 e2 21 3b
       -0.011829176 0.017113399 -0.025517488 0.0024701927
000040 98 db a0 3b e4 cb bf 3b 2e 65 81 bc fd 96 5d bb
       0.00490899 0.005853163 -0.015795317 -0.003381192
000050 72 8e 3d 3a 56 a1 91 bb b0 a2 26 bc 8a 4d 01 bd
       0.0007231004 -0.0044442816 -0.010170624 -0.031568088
000060 86 f5 97 bc e8 54 58 ba 30 a2 28 3c fe d5 91 bc
       -0.018549692 -0.0008252398 0.010292575 -0.017802235
000070 6d c1 76 3c ce f6 f9 bc 88 0e 88 3c 4e 00 5f 3c
       0.015060765 -0.030513193 0.016608492 0.0136109125
000080 92 71 72 bc fe 19 a8 bc 77 79 69 3c 75 58 8a bc
       -0.014797585 -0.020520207 0.014250151 -0.016887883
000090 0b 07 d4 3c 91 47 38 39 e4 9c c3 3c 1b 55 cc 3c
       0.025882265 0.00017574268 0.023878522 0.024942925
0000a0 f4 62 d8 3c 9f bc de 3c 2a 68 04 3c d8 98 cd 3c
       0.026414372 0.02718955 0.008081475 0.025097296
0000b0 fe fa a4 3c d5 e8 b9 bc 6f 19 e2 3c cc fc 88 3b
       0.020139214 -0.02269403 0.027600018 0.0041805264
0000c0 06 82 c5 bc 96 32 f7 bc 51 20 44 bc a3 05 12 3c
       -0.024109852 -0.030175488 -0.011970595 0.008912477
0000d0 33 b7 39 3a 26 0d df bc ca 79 81 3b 4b 19 2a bc
       0.0007084489 -0.02722795 0.003951286 -0.010382007
0000e0 f2 47 0b 3c 05 8e 82 bc 1c a6 00 bc f6 77 98 bb
       0.00850104 -0.01593686 -0.007852104 -0.0046529723
0000f0 bd ea bf bc 1f bb c0 3c bb 81 be 3b 12 ed 92 bc
       -0.023427362 0.023526726 0.005813805 -0.01793531
000100 c0 5c da 3b c3 bf ab bc 9a 50 eb bc a8 ad f8 bc
       0.0066638887 -0.020965463 -0.028724957 -0.030356243
000110 16 0d 60 3c b2 6f 75 bc 1c e6 ba bc c4 3e bd bc
       0.013674995 -0.0149802435 -0.022814803 -0.023101218
000120 52 91 f1 ba 60 57 53 bc 99 05 8b 38 28 40 0e 3c
       -0.001843015 -0.01289925 6.629079e-05 0.008682288
000130 7f d2 5e 3c 43 0e 18 3d 0a af ee bb b2 a4 8f bc
       0.013599991 0.037122976 -0.00728405 -0.017534588
000140 6b 65 65 bb 96 76 28 3c 70 6d 1c 3c da 3c bf 3c
       -0.0035003077 0.010282179 0.009547576 0.023344446
000150 45 1a 68 3c e1 ea cc bc a9 e8 55 3b 8a a9 8a 3c
       0.014166419 -0.025014343 0.0032639897 0.016926546
000160 6b 78 b3 3c 75 fc 9a bc df 7e 84 bc 88 4a 95 3a
       0.021908006 -0.018919209 -0.016173778 0.001139001
000170 dc 6e 87 3c 05 fc c2 3c 64 be c3 3c e0 ab 8d 3b
       0.016532354 0.023801813 0.023894496 0.0043234676
000180 47 e6 f8 3c 2a 8c 52 3a a2 3a 14 3c 3d 18 9f 3b
       0.030383242 0.00080317503 0.009047182 0.0048551844
000190 95 24 92 bc 46 0b b1 3c 30 39 c0 bb c2 47 a9 3c
       -0.01783971 0.02161182 -0.0058661923 0.0206641
0001a0 48 7d 3a 3b 1a 28 8f 3c 12 ec aa bc b1 d9 d0 3b
       0.002845602 0.017475177 -0.02086452 0.006373607
0001b0 db 1a 2b bc 01 d6 d4 3c 52 5f 74 3c f7 48 81 3b
       -0.010443415 0.025980951 0.014915304 0.0039454657
0001c0 fd 14 c1 3b ad 11 c6 3b d4 a5 f1 3c 1e a7 c5 3c
       0.0058923946 0.0060445876 0.029498018 0.02412754
0001d0 f1 25 81 3c 20 b6 83 bb e7 d5 a2 bc 57 2f e9 ba
       0.015765162 -0.0040195137 -0.019877387 -0.0017790598
0001e0 5a 8d 89 bc f6 44 a9 bc ac 0d b7 b6 2e 65 a4 3c
       -0.016791034 -0.020662766 -5.4554166e-06 0.020067777
0001f0 e3 d1 39 3b 1a 8c 81 bc 43 23 14 bb 80 04 cd bc
       0.0028353862 -0.015813876 -0.0022604025 -0.02502656
000200 6a ae c3 3c 32 06 e3 3b 03 7d 28 3c d8 67 f2 bc
       0.023886878 0.006928229 0.010283711 -0.029590532
000210 a9 f3 e2 3c 81 63 c7 bc 11 82 f8 3c 86 e4 24 3c
       0.027704077 -0.02433944 0.030335458 0.01006425
000220 f6 60 8d 3c 43 7a c1 3c 4b 42 25 3a 0d cb f8 3b
       0.017258149 0.02361787 0.0006304129 0.007592565
000230 d3 75 53 bc 7d 9b 88 bc 06 f4 0e bc 26 38 91 3c
       -0.012906509 -0.016675705 -0.008725172 0.017726969
000240 7f 40 5d 38 04 67 0a bc 18 2b f9 3c 34 3d 8b 3c
       5.2750573e-05 -0.008447412 0.030416057 0.016996957
000250 b9 a8 63 bc eb 4c 08 3c be ff f6 39 c3 7c e8 bc
       -0.013895207 0.00831912 0.0004711132 -0.028379804
000260 f7 29 a5 3b ce 72 e5 3b a4 18 f7 3b dc 04 13 ba
       0.005040403 0.007002211 0.007540779 -0.0005608329
000270 c9 0e cb 3c 6d fb e2 3c 23 7f a5 39 41 f3 a2 3c
       0.024787324 0.02770778 0.00031565977 0.019891383
000280 cd 33 cd bc a6 2e e9 3c da 48 e6 bb 36 6f fa 3c
       -0.025049115 0.028464627 -0.0070277276 0.030570608
000290 6d 10 52 bc 62 8a fc bc ee 40 89 3c 72 21 13 3c
       -0.012821299 -0.030827705 0.016754594 0.008980142
0002a0 5e 84 15 3b a8 63 60 bb 91 f6 19 3c 15 63 ad bb
       0.0022814493 -0.0034239087 0.009397165 -0.0052913525
0002b0 af ad ab 3c 5c d4 4d bb 49 87 98 3c bf 19 be 3b
       0.020956842 -0.0031407094 0.018619196 0.005801409
0002c0 74 2e 98 bc 28 bf 14 bc e6 e2 06 3c af 2f f3 bc
       -0.018576838 -0.009078778 0.008232808 -0.029685823
0002d0 d5 7c b4 bc c1 d9 ad 3a 1b a6 ec bc 73 72 c8 3c
       -0.02203218 0.0013263748 -0.028887799 0.024468636
0002e0 78 d6 93 bb e8 c7 b8 bc 02 ca 30 bc ac 37 60 3c
       -0.0045116507 -0.02255626 -0.01079035 0.013685148
0002f0 81 c2 a9 3c 47 16 2c bc b4 fa 80 bc f1 a7 67 3c
       0.02072263 -0.010503358 -0.015744545 0.014139161
000300 f3 8a 53 bc 8d 16 98 bc bd d8 49 3c 58 99 9a bc
       -0.012911546 -0.01856544 0.012319741 -0.018871948
000310 7a 9c bb bc 0a bb 3b 3c f1 99 2e bc 4e e7 91 3b
       -0.022901762 0.011458168 -0.01065682 0.0044526225
000320 83 5d e4 bb 56 92 f1 3b 8d 7c 16 3c 1c 87 8e bc
       -0.0069691553 0.007372181 0.009184969 -0.01739841
000330 94 8a c1 3c 96 d7 71 bc 1c a7 a3 bb 07 ca ee bb
       0.02362565 -0.014760872 -0.004994286 -0.007287267
000340 41 57 df bb 0c e8 db bc 5f 96 b0 bc bc 75 98 3c
       -0.0068158214 -0.026844047 -0.021556078 0.018610828
000350 88 bf 34 bc 28 c7 9e b7 9c 42 c9 3b 33 97 1e bc
       -0.011031993 -1.8927807e-05 0.0061419737 -0.009679603
000360 f5 20 5e ba 01 8e d5 3c 90 3e 8c 3c e9 d7 3c bc
       -0.0008473539 0.02606869 0.017119676 -0.011526086
000370 d4 46 30 bc 1a ea ad 3c 46 79 2a bc 94 28 c0 bc
       -0.010759074 0.021229792 -0.01040489 -0.02345685
000380 9f b9 81 bc 24 af fa bc 41 bd e4 3b 86 87 64 3b
       -0.015835581 -0.030601092 0.0069805686 0.0034870817
000390 c1 79 d8 3c 42 bc 68 3b e3 18 8d bc 6d 0d 9e ba
       0.026425244 0.00355126 -0.017223781 -0.0012058445
0003a0 71 97 c6 3c 96 6f 82 bc 39 d1 b0 3c ae 13 21 3c
       0.024242135 -0.015922349 0.02158414 0.009831352
0003b0 90 a3 f4 bc 00 c1 fe 3c e1 fc 64 bc 5c 6f e5 3a
       -0.029863149 0.031097889 -0.013976307 0.0017504501
0003c0 ad 26 f6 3c 81 ba f7 bc ab 94 98 3c 81 28 98 3a
       0.030047739 -0.0302403 0.018625578 0.0011608751
0003d0 8c 3a 85 bc 34 75 df bc 50 23 f1 3a 88 bb c0 3b
       -0.016263269 -0.027277566 0.0018397365 0.0058817305
0003e0 da 6c b4 bc 59 43 b1 bc ca 9b 54 3c 6c ea 31 3b
       -0.02202456 -0.02163856 0.012976596 0.0027147783
0003f0 1e 0b 4a bc 2f 56 10 3c 3b 8b ac bc 99 c3 71 3c
       -0.012331752 0.00880961 -0.021062484 0.014756107

hidden1.bias f4 [100]
000000 c1 d0 c3 bc f5 6e b5 bc fa 69 bb 3b 46 93 98 bb
       -0.023903253 -0.022147635 0.0057194205 -0.0046562282
000010 b5 f9 15 3d 6d 26 a1 3c 65 96 d9 b8 70 62 94 bc
       0.036615092 0.019671643 -0.000103753795 -0.018113345
000020 29 39 0c 3c 77 33 87 3c 65 49 8b 3c c6 1b 33 bb
       0.00855855 0.016504033 0.01700277 -0.0027329787
000030 2b 44 4a ba e5 e7 49 3c 4d 8b bd bc f0 5d 15 ba
       -0.00077158463 0.012323354 -0.023137713 -0.00056978967
000040 aa c3 6d bc e6 fb d7 3c bc e9 a7 bc d0 3a 90 bc
       -0.014511982 0.026365232 -0.020497195 -0.017606169
000050 a2 42 33 3c 15 93 bb bb 1a 3f a7 bb 09 ad 0a bd
       0.0109411795 -0.0057243207 -0.005103958 -0.033856425
000060 45 de ec 3b 36 3d fc 3c 5a 82 19 bb e7 0e 11 bc
       0.007228645 0.030790906 -0.0023423643 -0.008853651
000070 35 a8 fb 3c c2 4a eb 3c 21 ae 72 ba 25 6b f6 3c
       0.030719856 0.02872217 -0.00092575146 0.030080387
000080 5b b8 d8 3c 38 90 ad bc 17 fa 99 bc 5d 91 01 3d
       0.026455095 -0.021186933 -0.01879601 0.03163277
000090 1f e1 00 3d 4b 6d 16 3d 9f 0a d5 ba 31 32 32 bc
       0.031464692 0.036725324 -0.0016253776 -0.010876224
0000a0 f7 1a 96 bc 06 b4 a6 3c a5 55 f8 bb 9b 05 7d 3c
       -0.018323405 0.020349514 -0.007578569 0.015443231
0000b0 58 75 bf bc 32 1f 40 bc 08 d8 5a 3c 91 e2 a6 3c
       -0.023371384 -0.011726188 0.01335717 0.020371707
0000c0 de 04 ca bc 65 fc e7 bb ef df 8e 3d d7 cc c3 bc
       -0.024660524 -0.0070796483 0.06976306 -0.023901386
0000d0 86 df 5c 3c c8 9d 07 bd 83 a3 29 3b 2c f7 ae 3c
       0.0134810265 -0.033109456 0.0025884814 0.021358095
0000e0 0f 11 7c bc ac 05 47 bb 7f 6a 4f bb f0 1e 4d bb
       -0.015384926 -0.003036837 -0.003164917 -0.0031298958
0000f0 24 90 95 3c f3 a0 c1 3c 88 d1 ba 3c a8 61 fe ba
       0.018257208 0.023636317 0.02280499 -0.0019407766
000100 3b c4 df 3c 2d 45 ca 3c 47 23 b5 bb c0 7e da 3c
       0.02731525 0.024691189 -0.005527887 0.026671767
000110 fe 03 7c bc 6f 9a c6 3c 4c 68 00 bc 7e ea 01 bc
       -0.015381811 0.024243562 -0.007837366 -0.007929442
000120 36 35 dc b9 7a 85 82 3c 87 66 dd 3c 38 06 4d bb
       -0.00042001315 0.015932787 0.027026428 -0.0031284224
000130 2c d9 5d bb 07 b9 27 bd b3 13 de 3c e1 bb 0d 3c
       -0.0033851368 -0.04094794 0.027109003 0.008650751
000140 bf 2d e3 bc df 39 cb 3c f5 58 20 3c eb 8d 05 bb
       -0.027731774 0.024807869 0.009786834 -0.002037878
000150 46 83 ee 3c 63 55 e2 ba 44 23 9f ba 04 a7 d3 3c
       0.02911533 -0.0017267879 -0.0012141247 0.025836475
000160 7e 93 a6 bc c0 fe 15 3d be cf d3 3c 49 18 7d bc
       -0.020334002 0.0366199 0.025855895 -0.015447685
000170 f9 91 0e 3d ec 47 44 bc ce 00 bb 3c 4f 87 b6 ba
       0.03480718 -0.011980038 0.022827532 -0.0013925823
000180 fa b2 8c 3d 73 83 f0 3c a9 b6 d9 bc 26 b7 af 3c
       0.068700746 0.029359555 -0.026576357 0.021449637

hidden2.weight f4 [50, 100]
000000 e8 d5 aa 3d a3 20 43 bd b0 66 9a 3d 4d 9a c7 3b
       0.08341581 -0.047638547 0.07539117 0.006091392
000010 b3 97 95 3d 5a 73 79 bc 8a e6 37 3d c0 d6 93 bc
       0.07304325 -0.015225256 0.044897594 -0.018046737
000020 93 ae 5a bd 2a e4 1e 3d e3 ca 1e bd 4d ff b9 3b
       -0.053389143 0.038791813 -0.038767707 0.005676186
000030 33 98 a7 3c 4d e1 bd 3c 17 cc 20 3d 27 b8 5d bc
       0.020458316 0.02317872 0.039257135 -0.013532675
000040 c0 eb bf bc b3 72 64 bd 33 4e 7d 3c 63 16 06 3d
       -0.023427844 -0.05577345 0.015460539 0.032736193
000050 70 d3 9a 3d 67 db 4e 3c e0 59 20 3d fa 94 89 3d
       0.0755986 0.012625552 0.03914821 0.06717868
000060 4d 3d 23 3d d2 e3 80 bd 00 fe ce 3b 60 51 3d 3d
       0.039853383 -0.06293453 0.0063169003 0.046220183
000070 38 47 ad bd 07 b6 aa 3d 10 d1 2c 3d 17 36 a4 3d
       -0.084608495 0.083355 0.042191565 0.08018129
000080 9a 09 71 ba 03 0b bb bd 00 41 1f 3d 67 eb 1a 3b
       -0.0009194851 -0.0913296 0.03888035 0.0023638846
000090 62 68 92 bd aa 15 9b 3d 8d 8a 85 bd 17 e4 a4 bd
       -0.07148816 0.075724915 -0.06520567 -0.08051317
0000a0 b0 36 bf 3d b0 cf 5b bd 93 10 e9 bc 9d a1 8e 3d
       0.09336603 -0.053664863 -0.028450286 0.06964419
0000b0 03 76 04 3d 2d 7f 67 3d 30 56 00 3d 45 9d 9c bd
       0.032339107 0.05651777 0.031332195 -0.07647184
0000c0 33 62 19 bb 07 60 7b bd 4d 69 ec bc d0 73 31 bd
       -0.0023404479 -0.061370876 -0.028858805 -0.043323338
0000d0 0d aa 19 bd 32 00 bf bd a7 2e 17 3c 7d 4b 86 bd
       -0.03751569 -0.09326209 0.009227431 -0.06557367
0000e0 7d ae 02 bd 9d 57 56 3d 33 36 9d bb a7 c9 08 3d
       -0.031904686 0.05232965 -0.004797721 0.033395436
0000f0 80 58 f4 bb 0a d3 a7 bd 93 64 79 3d cf 12 8d bd
       -0.007456839 -0.081945494 0.06088693 -0.06888353
000100 4d 98 57 bd 1a 91 ee 3c 85 c2 c4 bd 40 c3 32 bd
       -0.05263548 0.029121924 -0.09607414 -0.043643236
000110 e0 2e bf 3c ea ac c8 3d 77 08 8b 3d 4a 70 2d 3d
       0.023337781 0.09798606 0.06788724 0.042343415
000120 e7 a3 85 3d 2d 98 17 bd f0 14 1e 3d 58 c5 a5 3d
       0.065254025 -0.03701036 0.038594186 0.08094281
000130 98 a1 b9 3d 50 49 02 bd 33 6d a9 bc 73 57 31 bd
       0.09064025 -0.031808197 -0.020681953 -0.04329629
000140 77 0a c9 3d 65 92 84 3d 00 74 5b bb 0d 9c 9f bd
       0.09816449 0.06473235 -0.003348589 -0.07793436
000150 e8 c1 8a 3d d3 37 ad bc 00 6c 7c 3a f8 52 8d bd
       0.06775266 -0.021144783 0.00096291304 -0.06900591
000160 53 97 59 3d e7 17 8a bd 7b 57 b2 3d 7b 2b bd bd
       0.05312283 -0.0674284 0.08708092 -0.09236809
000170 c7 fd a5 3c db ac ac 3d a7 f4 f3 bc ea c3 6a bd
       0.020262612 0.08431407 -0.029779745 -0.057315744
000180 03 7b 61 bd 30 85 19 bd 37 82 5b 3d 53 89 a3 bd
       -0.055048954 -0.037480533 0.05359098 -0.07985177
000190 51 bf fd bc ab 77 2f 3d 37 86 16 3d 81 df 5e 3b
       -0.030975016 0.042838734 0.03674909 0.003400773
0001a0 b6 74 1f 3d dd 7f a8 bd 9b 02 f8 3c 70 6a a9 bc
       0.038929664 -0.08227513 0.03027468 -0.020680636
0001b0 75 ff ae 3d 30 53 02 3d 3b 93 2f bc af 66 ab bd
       0.08544818 0.031817615 -0.010716255 -0.08369195
0001c0 1a b1 12 3d 5c dd d3 3c 40 a6 b6 3c 48 72 32 3c
       0.03581343 0.025862388 0.022296071 0.010891505
0001d0 a4 f9 ec 3b 6e 05 bf bd b8 60 8b bc d8 ae c3 bc
       0.007231908 -0.093272075 -0.017013893 -0.023887083
0001e0 c2 00 3f 3c e2 85 c5 3c cb 75 cb 3c 88 36 01 bd
       0.0116578955 0.024111692 0.024836442 -0.031546146
0001f0 c5 bc b1 bd a3 a3 27 bd ad 86 b6 3d 00 06 2c 3d
       -0.08678583 -0.04092754 0.08912406 0.04199791
000200 7e 4b a7 3c 97 0a 78 bb 25 15 a7 bd 00 ba 91 bd
       0.02042174 -0.003784811 -0.0815833 -0.07115555
000210 34 2d 90 3d 77 10 5a bd 9c 3a 0d 3d 9d 81 92 3d
       0.07039872 -0.05323836 0.034479722 0.07153628
000220 6c c2 3d bd b8 c5 fb 3b e0 eb d5 3b e2 f7 0d 3d
       -0.046327993 0.007683482 0.0065283626 0.034660228
000230 90 0b bf bd 74 e5 aa bd 42 f5 c4 3d 9e 83 ef 3b
       -0.09328377 -0.08344546 0.09617092 0.007309391
000240 a9 f4 c1 3b 6c 7f c5 ba 22 ac a9 bd 31 b5 11 3d
       0.0059190583 -0.0015067882 -0.08284785 0.03557319
000250 ae c2 8e bd 59 3d b4 bd a2 46 cd bd 19 4b a9 3c
       -0.06970726 -0.08800764 -0.10023238 0.020665692
000260 00 1d 68 3c 63 fa 8a 3d 86 0e 90 3d a3 5a f2 3c
       0.01416707 0.06786039 0.0703402 0.029584235
000270 2f 5d 4f bd 5e ba 1a 3d e3 c4 4a bd a5 bb e9 bc
       -0.050625976 0.03777539 -0.049504172 -0.028531859
000280 81 43 72 bd f9 57 9a bd fb d5 86 bd 99 7a ef 3c
       -0.059146408 -0.07536311 -0.06583782 0.029233264
000290 df 57 84 3c d4 4d 4f 3d 20 54 97 bd 36 74 81 bd
       0.016155181 0.050611332 -0.073890924 -0.063209936
0002a0 3f 9f b1 3b fd c2 a9 3d a0 a6 37 3d 40 73 45 3d
       0.005420595 0.08289144 0.04483664 0.048205614
0002b0 da ba 35 bd 13 0d 9c 3d 1a 2a 9f 3d c3 48 f7 bd
       -0.04436765 0.07619681 0.07771702 -0.12074425
0002c0 31 4b 1e bd 4f 19 86 3d 51 b4 c9 3d 15 da 89 bd
       -0.038645927 0.06547796 0.09848846 -0.06731049
0002d0 73 4c 17 bd 2e cb 4e bd 0c f6 9e bd 41 f5 e2 3d
       -0.036938142 -0.050486736 -0.077617735 0.11081935
0002e0 a8 1b cd 3d 46 36 c7 3c 85 2f 7e 3d a9 20 89 3d
       0.10015041 0.024317872 0.062057037 0.066956826
0002f0 6b 16 a1 3d 34 fc 67 3d 1c 8a a2 3d e7 97 7c 3d
       0.07865604 0.056637004 0.079364985 0.061668303
000300 ab b2 e6 3d fd 31 8e 3b 10 48 6c 3c f1 65 00 3b
       0.11264547 0.004339455 0.014421478 0.0019592012
000310 fc 64 06 bc b1 e4 ab bc f7 52 4a 3b 7f 29 98 3d
       -0.0082027875 -0.020983072 0.0030872205 0.0742979
000320 a4 82 b5 3c 9c a0 01 bd 11 2c 67 3d 8a c2 98 bd
       0.02215702 -0.03164731 0.05643851 -0.074589804
000330 6a 14 f6 bd 85 df 0e bd c6 f3 83 3d 63 d9 2e bc
       -0.120156124 -0.034881134 0.064429805 -0.010671946
000340 46 49 29 3d 2b f4 ec 3d 3e 7d a3 bc 70 ce e6 bd
       0.041329645 0.11570009 -0.019957181 -0.112698436
000350 99 70 78 3d 4d 26 9c bc 88 0e 0b 3e 19 95 0d be
       0.060654256 -0.019061232 0.13579762 -0.13826407
000360 e3 60 ae 3c 5b 6f b1 bd 7b 56 89 bc 99 cb 65 bd
       0.021286434 -0.086638175 -0.01676487 -0.05610237
000370 8f 94 00 be c2 dc a0 bc a5 a2 6c bc 92 b3 2d 3d
       -0.1255667 -0.019636516 -0.014443074 0.04240758
000380 77 e3 ae bd bb 4c 68 3c 35 0b f7 3d ca 74 9f 3c
       -0.08539479 0.01417845 0.120626844 0.019464869
000390 00 56 e4 bd 34 d2 a3 bd 39 62 0d be d1 9e e9 bd
       -0.11149216 -0.079990774 -0.13807 -0.11407245
0003a0 c0 fa 85 3c df 59 11 bd 07 6d 32 bc 5e 1b 35 3d
       0.016354918 -0.0354861 -0.010890252 0.044215553
0003b0 57 fc b7 3d 0c 3b 05 3e b9 b8 d3 bd f7 56 68 bc
       0.08983677 0.13010806 -0.103379674 -0.01418089
0003c0 26 8c 5f 3d 5d fc a6 bd 69 4c 6b 3d d0 a3 9e 3d
       0.054577015 -0.08153603 0.057445917 0.077460885
0003d0 35 74 af 3d 09 30 ec bc a3 3a 07 be b9 8a c7 3d
       0.085670866 -0.028831499 -0.13205962 0.09743256
0003e0 15 72 1a 3d 39 e9 83 3b 24 fb 06 bd a1 dd bc 3d
       0.037706453 0.004025605 -0.03295435 0.0922196
0003f0 8d 24 44 3c ce 1f f3 3b 6b f5 ea bb f3 69 03 3d
       0.011971605 0.007419563 -0.0071703694 0.032083463

hidden2.bias f4 [50]
000000 c7 49 12 bd 00 59 e1 3c 3c 6a dc 3d 80 a8 18 3d
       -0.03571489 0.027508259 0.1076245 0.03727007
000010 53 85 ae 3c c8 e3 ee 3c 88 f0 fd 3c 30 44 e7 3b
       0.021303808 0.029161349 0.030998483 0.007057689
000020 a3 9e e5 bc 13 9c 90 3d d9 e6 21 3d d5 1c c5 bd
       -0.028029745 0.07061019 0.039526794 -0.0962464
000030 c2 dc a1 bd 9e 08 23 3d 43 b5 9e bd 8a 57 61 3d
       -0.07903434 0.03980314 -0.07749417 0.055015124
000040 ed ee 77 bd 85 a2 a4 3d f3 44 9d 3c 3a e4 58 3d
       -0.06053059 0.08038811 0.019197917 0.05295203
000050 c6 aa dd 3d 15 7c c4 bd 6d 82 49 3a d3 f5 c1 bd
       0.10823588 -0.09593979 0.00076869765 -0.094707154
000060 f7 4b 32 bd 23 ce 6c bd 38 b1 a6 3c 46 b6 11 3d
       -0.043529477 -0.057813775 0.020348176 0.03557422
000070 06 05 88 3d 97 df 3c 3d a8 20 f6 3c 59 6e ef 3d
       0.06641583 0.04611167 0.030044869 0.11690969
000080 bd e3 25 3d 38 39 cc bd 32 a7 c9 bc c4 84 e0 3c
       0.04050039 -0.09971851 -0.024615858 0.027407058
000090 f6 92 38 3d ff bb a1 3c 47 d1 e5 3d c7 f5 04 3b
       0.045062028 0.019742964 0.11221557 0.0020288096
0000a0 0b 49 c9 3c ca 10 cc bd f5 19 b1 3d 53 58 6c bd
       0.024570962 -0.0996414 0.08647529 -0.05770142
0000b0 cd 00 06 bd a1 49 79 bc c4 e5 e5 3c fb 3d a2 3c
       -0.032715607 -0.015215308 0.028063662 0.019804945
0000c0 45 53 99 3d e6 6b 91 ba
       0.074865855 -0.0011094778

hidden3.weight f4 [25, 50]
000000 b4 07 f5 3d 8a 66 81 3d 2b 6d db bc c4 69 98 3d
       0.1196436 0.06318386 -0.026785454 0.07442048
000010 18 ec 50 bd 2c 7b ca bd 75 c3 e0 3d 80 b0 ef 3c
       -0.051006407 -0.098867744 0.109747805 0.029258966
000020 f3 cc 8b bd a3 99 56 bd 07 21 10 3d 02 70 94 bd
       -0.068262 -0.052392613 0.035187747 -0.07247926
000030 7e 8c ba bd de 6d e2 bd 98 80 f2 bd c7 c2 e9 3d
       -0.09108828 -0.11056112 -0.118409336 0.11414104
000040 32 06 7a bd 08 63 ad 3d 4d d5 4d bd b9 fd bf bd
       -0.061041065 0.08466154 -0.050252248 -0.09374566
000050 5f 5d da 3d 87 ef eb 3d 88 90 ba bd 02 80 47 bd
       0.106623404 0.115202956 -0.091095984 -0.048706062
000060 88 3a 81 bd 7b 5e f6 3d de ad cf bd 42 8f 03 3e
       -0.06309992 0.120297395 -0.101405844 0.12847617
000070 43 fd 93 3c 6a e1 99 3d 65 b3 0d bd 8e 8e 3e bd
       0.0180651 0.075136974 -0.034594912 -0.04652267
000080 f6 ad a0 3c 6b 78 27 3d 84 ea e9 3d dd bd 0e be
       0.019614201 0.040886324 0.114216834 -0.13939615
000090 d2 14 9c bd 87 d6 2b bb 2d e9 ef 3b 9d 6b b5 bd
       -0.07621159 -0.0026220398 0.007321498 -0.08858416
0000a0 26 e2 a5 3c 6f 8e f5 3d e1 fe 06 be e9 ba 3c bd
       0.020249438 0.11990058 -0.13183166 -0.04607669
0000b0 9a de 86 bd e7 9f e5 3d 16 4e d2 bd 85 cd c6 bd
       -0.06585427 0.112121396 -0.102688 -0.097071685
0000c0 e0 03 1f bd a6 56 b6 bd 2b bb fb bd 63 e2 8a 3d
       -0.038822055 -0.08903246 -0.12291559 0.06781461
0000d0 ef 76 20 3d fa e4 8d bd 5a a7 d5 bd f6 61 da bd
       0.039175924 -0.069284394 -0.104323104 -0.10663216
0000e0 e0 1e 30 3d 26 a6 f5 bd f9 19 83 3d c6 33 ee 3d
       0.042998195 -0.11994581 0.06401438 0.11630969
0000f0 4a 55 03 3e 99 e7 ca bd cd 2b 46 3d e5 2e ce 3d
       0.12825504 -0.09907455 0.048381615 0.10067538
000100 d6 da 35 3d 59 f3 50 bd 60 47 0b 3e 95 f9 d5 3d
       0.04439815 -0.051013324 0.13601446 0.104479946
000110 10 f6 db bc 96 d0 96 bb 20 18 9a 3d b4 48 93 bd
       -0.02685073 -0.004602502 0.07524133 -0.071916014
000120 35 7b 87 bb b5 15 dc bd b5 ab 87 3d 3e 34 c8 3d
       -0.0041345605 -0.10746328 0.066245474 0.097755894
000130 f7 1e 9f bd d1 ed 8c 3c 20 62 1d 3e 75 a0 ad 3d
       -0.07769578 0.017203243 0.15369463 0.084778704
000140 bd d0 c2 bd 88 61 07 be 91 09 c0 3d e3 6a ce bd
       -0.0951247 -0.13220799 0.09376825 -0.10078981
000150 8a de 4e bd e6 fb a5 bd c9 35 80 bd 74 88 6c 3d
       -0.0505052 -0.081046864 -0.06260259 0.05774732
000160 a4 ce 1c 3d 86 8d 43 3d 0b c4 7b 3d e7 84 6a 3d
       0.038283005 0.04774239 0.061466258 0.05725565
000170 2c 73 c7 3d aa db 0b 3d 22 01 e0 3d 6a 82 f5 bd
       0.09738764 0.034145035 0.10937716 -0.11987765
000180 19 dd 42 3d 03 11 ac 3d d3 78 e2 bc 0d 7b 13 3d
       0.047574136 0.08401682 -0.027645504 0.036006022
000190 54 af 63 bd 96 c1 3d 3d 87 d7 08 3e be bb fd 3d
       -0.055587128 0.046327196 0.13363467 0.123893246
0001a0 90 9e 95 3d 7d 1b 2c 3d 3d 42 ad bd 52 f7 b8 bd
       0.07305634 0.042018402 -0.084598996 -0.090315476
0001b0 6d af b8 bc 21 35 af 3d 65 d4 a5 3c 05 87 72 bd
       -0.022544587 0.085550554 0.02024288 -0.059210796
0001c0 38 33 26 3d ea b8 07 3e 51 e0 91 3d b4 31 09 be
       0.04057619 0.13254133 0.07122863 -0.13397866
0001d0 09 29 bc 3c f5 db e0 bd 86 9a a0 bd 0e c5 df 3d
       0.022968786 -0.109794535 -0.07841973 0.10926257
0001e0 5c 6a a2 3d 8b 89 4c bb ac 15 79 3d 1c 69 27 bd
       0.07930443 -0.0031209912 0.060811684 -0.040871724
0001f0 a7 46 be bd c4 6d 50 bd 84 9f d9 3d 4b 52 a9 bd
       -0.092908196 -0.05088593 0.10626128 -0.08267649
000200 3b f9 df 3d c7 72 5c bd a0 9d 3f bc 78 92 a0 bd
       0.10936209 -0.053820398 -0.011695296 -0.07840437
000210 05 67 de bd f5 6a 02 3e 5d 1c cc 3b 9d ce 30 bd
       -0.10859493 0.12736113 0.006228967 -0.04316579
000220 b2 0a 40 bd ae 5e 06 3e 20 fa 3c 3c f1 72 6c 3d
       -0.0468852 0.13122055 0.011534244 0.057726804
000230 c3 ec be 3d 69 a1 29 3a 11 53 02 be d5 f8 6e bd
       0.093225025 0.00064708904 -0.12727 -0.058342773
000240 5b 20 dc bd 05 8d e8 3b 16 45 0c be 42 e1 b6 bc
       -0.10748359 0.007096889 -0.13698229 -0.022324208
000250 41 73 df 3d e2 e7 1d 3b ce 05 f3 bb e2 c8 b0 bd
       0.10910655 0.0024094512 -0.0074164635 -0.08632065
000260 5d 5d 05 3e b1 fb 95 bb df ed 8d 3d 54 3b 03 3e
       0.13023897 -0.004577123 0.06930136 0.128156
000270 58 b2 9c 3d 4d 84 6f bc a3 45 a3 3d bf 3d e3 bd
       0.07651204 -0.014618945 0.079722665 -0.110957615
000280 18 7f d8 bc e8 1e 9d 3d 74 6c 0a be 61 f3 46 bd
       -0.02642779 0.076719105 -0.13517934 -0.048571948
000290 54 b5 fa 3c 75 b5 bc 3d eb 74 39 bc 67 1e 5d 3d
       0.030604042 0.09214298 -0.011319379 0.053984072
0002a0 99 3f 31 3b 15 86 03 be 0f 95 8e 3c 37 36 fd 3d
       0.0027045964 -0.12844117 0.017405061 0.12363856
0002b0 5d 66 00 3d be 54 27 3c 80 34 db bd 8e 77 0b bd
       0.03134762 0.010213075 -0.10703373 -0.034049563
0002c0 d5 37 d4 3d 7e a0 08 bd f7 78 2d 3d b2 64 b3 bd
       0.103622116 -0.033356182 0.04235169 -0.087594405
0002d0 0a a0 17 bd 23 42 0d 3e 14 4d 9e bb 20 0b c8 bd
       -0.03701786 0.1379476 -0.004830966 -0.09767747
0002e0 0a 0c b3 3d 2e c3 dd bc ff d8 ff 3b 3b c8 60 bd
       0.08742531 -0.027070608 0.0078078504 -0.054878455
0002f0 2b c2 7a 3d 11 8d 0b 3e c3 b9 f1 3d 16 70 07 3e
       0.06122033 0.13628031 0.11803009 0.13226351
000300 34 a5 e1 bd 78 78 92 bd 23 44 ca 3d b9 69 8c bb
       -0.11017838 -0.07151884 0.09876277 -0.004285064
000310 b3 77 9d bd 7b 47 97 bd 01 70 90 3c 6a 6c 35 bd
       -0.076888464 -0.07386681 0.017631533 -0.044292845
000320 34 38 33 3c bc d0 11 3e f8 5f 63 3e 80 58 f0 bd
       0.010938693 0.14239782 0.22204578 -0.1173563
000330 bf 95 cf bd ba c6 f4 3c 43 83 03 3e f4 06 21 3d
       -0.10135984 0.029879916 0.12843041 0.03931327
000340 92 e4 05 bd 6a 29 2d bd b4 f7 23 bd f9 1c fc bd
       -0.032688685 -0.042275824 -0.04003115 -0.123102136
000350 dd e5 82 bc 3d 43 69 3d db 2d ae 3d a7 3d 7c 3b
       -0.015978748 0.05694889 0.0850484 0.0038488896
000360 df 75 ea bd 21 bb 49 3e f5 32 3f bd 8f c6 08 be
       -0.114482634 0.1970029 -0.046679456 -0.13356994
000370 a1 86 31 38 0d 09 0f 3d 6a fa df 3c 8f f7 cc 3d
       4.232547e-05 0.03492074 0.027341086 0.100081556
000380 23 62 db bd 8b 93 a8 bc d0 08 a7 bd 43 d5 d6 bd
       -0.107120775 -0.020578166 -0.08155978 -0.10489895
000390 3b 09 56 3d 13 8c 2e be c0 14 cc 3d 5b ee ee 3d
       0.052254897 -0.17045622 0.09964895 0.116665564
0003a0 41 ac af bd 1d e7 ea bd b9 6d a1 3c 60 fd 94 bd
       -0.08577777 -0.114698626 0.01970564 -0.0727489
0003b0 50 3f 0e be cf 53 0a be dd ee 37 3e 20 35 a1 3d
       -0.1389134 -0.13508533 0.17962213 0.07871461
0003c0 d2 24 97 3d 5f 26 89 3d de 96 43 be ae 6c b0 3c
       0.0738007 0.06696772 -0.1910052 0.021536198
0003d0 ce b4 57 bd 2a 6b 0a be 0e 57 b1 bd dd 68 e7 bd
       -0.052662663 -0.13517442 -0.086591825 -0.11299298
0003e0 e5 50 60 bd 21 08 5a 3d 25 5f 01 3e 9a 9a 98 3d
       -0.054764647 0.05323041 0.12633951 0.07451363
0003f0 35 c5 01 be 0f 50 e7 3d 2a 9d 78 bd 38 a2 a2 3d
       -0.12672885 0.11294567 -0.06069676 0.07941097

hidden3.bias f4 [25]
000000 c7 11 13 bd a0 18 26 bd 42 5b 0a be 52 a8 6a 3d
       -0.035905626 -0.040550828 -0.13511375 0.05728943
000010 97 39 fb 3d 92 07 b2 bd d1 e1 94 bd a5 d4 8e bd
       0.12266844 -0.0869285 -0.072696336 -0.069741525
000020 42 1c ec bb eb 55 89 bc 50 25 9a 3d 87 35 bb bd
       -0.007205517 -0.016764602 0.07526648 -0.09141069
000030 98 77 0e 3e 10 7f 8f 3d 6e c7 d8 bd c8 2c 9c bd
       0.13912809 0.07006657 -0.10584913 -0.07625729
000040 85 d2 c9 bd 68 6c a4 bc 72 61 87 bd 81 dd 07 be
       -0.098546065 -0.020071223 -0.06610383 -0.13268091
000050 17 a5 b7 3e 3d d1 07 bd 4e ac 06 be ac 30 31 bd
       0.3586814 -0.03315853 -0.13151667 -0.043259308
000060 53 56 94 bd
       -0.072430275

output.weight f4 [1, 25]
000000 60 92 fc bd a3 df 25 3e 4f c6 3d 3e b1 3e f1 bd
       -0.12332606 0.16198592 0.1853268 -0.117795356
000010 e7 0f 44 be 7b a6 3d be e0 45 26 bd d0 d3 94 bd
       -0.19146691 -0.18520539 -0.04059398 -0.072669625
000020 ac 26 0f be 9a 00 34 3c 35 42 81 3e a5 ef 03 be
       -0.13979596 0.010986472 0.25245824 -0.12884386
000030 4e e2 2d 3e 37 a3 bf 3d 0a 7b b5 3d 5c a9 33 be
       0.1698086 0.09357303 0.088613585 -0.17545074
000040 6a 8d e1 3d 6b 03 1b be 2a 42 9c 3d 42 cf 2c 3e
       0.11013301 -0.15138023 0.07629807 0.16875938
000050 46 75 da 3e 3f 1e 35 be 27 a1 20 be d0 f5 47 3e
       0.42667598 -0.17687319 -0.15686475 0.19527364
000060 5d 34 27 be
       -0.16328569
