taskA3/best_model_weights_fold_5.pth (torch, 429208 bytes, 7 tensors)

hidden1.weight f4 [100, 1000]
-0.02543647 0.0010938144 -0.006229537 0.010556148 0.027386898 0.018208543 -0.00597962 0.020092169
0.01874567 -0.024800869 0.0035017561 0.0091473 -0.0121578425 0.016884066 -0.025517488 0.0024701927
0.0048670373 0.005853163 -0.017317956 -0.0034284838 0.0019696716 -0.0044842926 -0.010682264 -0.03175656
-0.018492807 -7.991922e-05 0.010292575 -0.01801969 0.015060765 -0.029926958 0.015597992 0.0136109125
-0.014797585 -0.021886786 0.014178597 -0.016887883 0.02910422 -0.00037438245 0.02253708 0.02618857
0.025668526 0.027049346 0.008081475 0.025705617 0.020139214 -0.02290288 0.027600018 0.0041805264
-0.024301618 -0.030804584 -0.012092433 0.009256244 0.0007084489 -0.02722795 0.0050576734 -0.010382007
0.00880129 -0.016215403 -0.007852104 -0.0046529723 -0.023427362 0.030174728 0.006731072 -0.018101022
0.006662116 -0.020838084 -0.028724957 -0.029703218 0.014660191 -0.0149802435 -0.023829851 -0.022425719
-0.001540917 -0.013119944 0.0027228352 0.008611535 0.0126937395 0.041218188 -0.007625058 -0.016763456
-0.004785799 0.010282179 0.009547576 0.019996224 0.014166419 -0.025014343 0.0032639897 0.017482322
0.022306023 -0.01925338 -0.014818627 0.00047133386 0.015602447 0.024168197 0.028146124 0.009272615
0.03164225 0.0013714617 0.008367982 0.004582056 -0.017740713 0.021916764 -0.0059607164 0.017663393
0.002845602 0.017475177 -0.02086452 0.0072847838 -0.010435346 0.026090086 0.016509961 0.004508239
0.006277471 0.00028085636 0.031488016 0.021450493 0.017027436 -0.004068286 -0.019877387 -0.0018075219
-0.016950551 -0.022394456 -0.00011863565 0.02010884 0.0011503042 -0.015813876 -0.0010101006 -0.025062138
0.021442872 0.0068931417 0.009807311 -0.029623209 0.026755318 -0.023631096 0.030461749 0.010001873
0.016767817 0.030304585 -0.0007543552 0.00721926 -0.013091287 -0.017088348 -0.009001021 0.018858107
4.85527e-05 -0.009362167 0.033637065 0.022774708 -0.014565472 0.00892191 0.0015246412 -0.028455216
0.0050960025 0.0041173575 0.007540779 -0.0005527626 0.024324384 0.029810896 -0.0007325569 0.019891383
-0.026257165 0.028464627 -0.006369199 0.030400582 -0.012570803 -0.030060632 0.015323209 0.008135538
0.0028696135 -0.003969852 0.009325054 -0.0049129785 0.019215193 -0.0029764124 0.019834068 0.004258706
-0.018549297 -0.009078778 0.005015766 -0.029372264 -0.022094347 0.0016580324 -0.028887799 0.022262529
-0.0045116507 -0.021182332 -0.011117936 0.013685148 0.021861464 -0.011113235 -0.015763858 0.014420737
-0.012911546 -0.018507812 0.012319741 -0.018873695 -0.024042636 0.011267572 -0.010774468 0.004853688
-0.0065488573 0.0090995105 0.009076976 -0.01729347 0.023055742 -0.01539877 -0.007925973 -0.008278363
-0.006999605 -0.026844047 -0.021556078 0.018610828 -0.011218461 -1.8927807e-05 0.0061419737 -0.009679603
-0.0040176106 0.02605126 0.02072112 -0.011831504 -0.010793805 0.021354763 -0.01040489 -0.024043957
-0.01524272 -0.030766066 0.0069805686 0.0034870817 0.026371058 0.002655158 -0.017280957 -0.0014631454
0.02297861 -0.015960898 0.027164381 0.009803701 -0.029863149 0.031318434 -0.013976307 0.001050431
0.032823138 -0.031019323 0.018699704 0.0012158956 -0.019716907 -0.027571814 0.0018336661 0.005680935
-0.02202456 -0.021490932 0.012976596 0.00744291 -0.012345238 0.008630516 -0.021140603 0.016680885
00000000: 2560 d0bc 525e 8f3a 2521 ccbb b2f3 2c3c
00000010: 7d5a e03c 152a 953c b0f0 c3bb 5598 a43c
00000020: 8590 993c 312b cbbc b87d 653b 8fde 153c
00000030: b031 47bc 7450 8a3c 0d0a d1bc f5e2 213b
00000040: ab7b 9f3b e4cb bf3b 63de 8dbc 6ab0 60bb
00000050: 9b15 013b f9f0 92bb aa04 2fbc 2b13 02bd
00000060: 3a7e 97bc 4e9a a7b8 30a2 283c 079e 93bc
00000070: 6dc1 763c 6129 f5bc b88e 7f3c 4e00 5f3c
00000080: 9271 72bc eb4b b3bc 594d 683c 7558 8abc
00000090: f96b ee3c c348 c4b9 af9f b83c 6989 d63c
000000a0: cd46 d23c 9796 dd3c 2a68 043c 9694 d23c
000000b0: fefa a43c d29e bbbc 6f19 e23c ccfc 883b
000000c0: 3014 c7bc e559 fcbc 571f 46bc 80a7 173c
000000d0: 33b7 393a 260d dfbc d7ba a53b 4b19 2abc
000000e0: 4933 103c 2ad6 84bc 1ca6 00bc f677 98bb
000000f0: bdea bfbc fe30 f73c 5390 dc3b 9848 94bc
00000100: e14d da3b a1b4 aabc 9a50 ebbc 2a54 f3bc
00000110: 4c31 703c b26f 75bc d236 c3bc 24b6 b7bc
00000120: 98f8 c9ba 09f5 56bc 9871 323b 6517 0d3c
00000130: 67f9 4f3c 67d4 283d 9fdb f9bb 8453 89bc
00000140: 31d2 9cbb 9676 283c 706d 1c3c 1fcf a33c
00000150: 451a 683c e1ea ccbc a9e8 553b 1637 8f3c
00000160: 1fbb b63c 44b9 9dbc d4c9 72bc 5c1d f739
00000170: 68a1 7f3c 62fc c53c b392 e63c 2bec 173c
00000180: 4e9b 013d 9ec2 b33a dc19 093c 1225 963b
00000190: f954 91bc c98a b33c 1d52 c3bb d2b2 903c
000001a0: 487d 3a3b 1a28 8f3c 12ec aabc 32b5 ee3b
000001b0: 03f9 2abc e0ba d53c e63f 873c dab9 933b
000001c0: 3eb3 cd3b e73f 9339 94f9 003d f2b8 af3c
000001d0: 1f7d 8b3c 424f 85bb e7d5 a2bc 5fea ecba
000001e0: e2db 8abc 9474 b7bc 08cc f8b8 4bbb a43c
000001f0: cec5 963a 1a8c 81bc 5a65 84ba 1d4f cdbc
00000200: f6a8 af3c dddf e13b d8ae 203c 5fac f2bc
00000210: f82d db3c 0096 c1bc eb8a f93c e5de 233c
00000220: a95c 893c 5241 f83c ecbf 45ba 8b8f ec3b
00000230: d67c 56bc ddfc 8bbc 0579 13bc 517c 9a3c
00000240: 11a5 4b38 c663 19bc 05c7 093d 0692 ba3c
00000250: 04a4 6ebc 342d 123c 78d6 c73a ea1a e9bc
00000260: 5efc a63b e6ea 863b a418 f73b 45e7 10ba
00000270: ee43 c73c fb35 f43c 1009 40ba 41f3 a23c
00000280: 4419 d7bc a62e e93c b7b4 d0bb a40a f93c
00000290: c5f5 4dbc b741 f6bc 320e 7b3c eb4a 053c
000002a0: 2010 3c3b 8815 82bb 1cc8 183c 0dfd a0bb
000002b0: 2e69 9d3c ea0f 43bb 0e7b a23c 9d8c 8b3b
000002c0: b2f4 97bc 28bf 14bc 4b5b a43b 1a9e f0bc
000002d0: 34ff b4bc 5652 d93a 1ba6 ecbc e85f b63c
000002e0: 78d6 93bb 9286 adbc 0128 36bc ac37 603c
000002f0: d016 b33c 4914 36bc 3523 81bc f444 6c3c
00000300: f38a 53bc b29d 97bc bdd8 493c 029d 9abc
00000310: 10f5 c4bc 9f9b 383c 6587 30bc b00b 9f3b
00000320: cc97 d6bb 1d16 153c 99b7 143c 09ab 8dbc
00000330: 65df bc3c 1f4b 7cbc f1db 01bc f9a1 07bc
00000340: f15c e5bb 0ce8 dbbc 5f96 b0bc bc75 983c
00000350: a3cd 37bc 28c7 9eb7 9c42 c93b 3397 1ebc
00000360: 29a6 83bb 7469 d53c 57bf a93c edd8 41bc
00000370: 80d8 30bc 2ff0 ae3c 4679 2abc d5f7 c4bc
00000380: 9abc 79bc 1e09 fcbc 41bd e43b 8687 643b
00000390: 1e08 d83c 2902 2e3b cb90 8dbc 03c7 bfba
000003a0: a33d bc3c 6ec0 82bc d687 de3c b49f 203c
000003b0: 90a3 f4bc c247 003d e1fc 64bc 9eae 893a
000003c0: 8e71 063d 3c1c febc 1f30 993c b05e 9f3a
000003d0: 5a85 a1bc 49de e1bc a057 f03a 2327 ba3b
000003e0: da6c b4bc c00d b0bc ca9b 543c a8e3 f33b
000003f0: ae43 4abc 0267 0d3c 0f2f adbc 5aa6 883c

hidden1.bias f4 [100]
-0.020780418 -0.011277416 0.00073880627 -0.018461311 0.015179826 0.010565929 -0.0022661781 -0.020311324
0.0026123205 0.012295899 -0.0052110245 -0.012266618 -0.0047148233 0.010949115 -0.038104013 -0.012333722
-0.013134217 0.025178269 -0.01649594 -0.00021646266 -0.004099099 -0.0007567451 -0.0009108517 -0.033954825
-0.003662256 0.026298793 -0.0085488595 0.0050724046 0.022542495 0.013580931 -0.008730835 0.022409033
0.01976414 -0.014400287 -0.016438397 0.031713214 0.028384618 0.03524144 -0.009964507 -0.0050286073
-0.01686889 0.01625265 -0.004876744 0.014940323 -0.04376975 -0.008378493 -0.001652313 0.016222233
-0.024183268 -0.007657228 0.052658446 -0.030469522 0.010107081 -0.031518858 -0.002978048 0.020776352
-0.016288303 -0.0047608283 -0.0019226365 -0.007725438 0.018415514 0.023303704 0.026137367 -0.011768446
0.02188713 0.026190607 -0.02076916 0.026321527 -0.015949843 0.018307855 -0.006062299 -0.006342666
-0.009373521 0.0018563599 0.026427789 -0.019436803 -0.009301043 -0.04244814 0.0163011 0.013637334
-0.014132344 0.022683555 0.0051212264 -0.0033054198 0.020680724 -0.0049737543 -0.0020030548 0.0063868808
-0.018423034 0.042428512 0.01649214 -0.01284162 0.03188168 -0.011820909 0.020265456 -0.007700034
0.068097085 0.022719093 -0.017739343 0.015526163
00000000: b23b aabc e9c4 38bc 73ac 413a 2d3c 97bc
00000010: ceb4 783c b81c 2d3c 2984 14bb ef63 a6bc
00000020: 7733 2b3b bd74 493c 3ec1 aabb edf9 48bc
00000030: ce7e 9abb eb63 333c f412 1cbd 6113 4abc
00000040: e630 57bc a842 ce3c 7e22 87bc 41fa 62b9
00000050: bc51 86bb 4e60 46ba 39c6 6eba 3714 0bbd
00000060: 7602 70bb 9170 d73c 8410 0cbc 6a36 a63b
00000070: 0aab b83c 8e82 5e3c c70b 0fbc 2693 b73c
00000080: 68e8 a13c 2eef 6bbc d1a9 86bc b7e5 013d
00000090: dc86 e83c 5459 103d 2c42 23bc 04c7 a4bb
000000a0: a030 8abc 4724 853c 18cd 9fbb 42c8 743c
000000b0: e947 33bd f245 09bc 6d92 d8ba 7de4 843c
000000c0: fd1b c6bc 7ce9 fabb 62b0 573d 389b f9bc
000000d0: 2c98 253c eb19 01bd 5b2b 43bb 2b33 aa3c
000000e0: 0c6f 85bc b900 9cbb fa00 fcba ac25 fdbb
000000f0: 22dc 963c 69e7 be3c 081e d63c 71d0 40bc
00000100: a34c b33c af8d d63c 1624 aabc 3ea0 d73c
00000110: 3fa9 82bc 5bfa 953c 40a6 c6bb 24d6 cfbb
00000120: 6693 19bc 1a51 f33a 177f d83c ee39 9fbc
00000130: 6763 18bc 1ade 2dbd e289 853c 206f 5f3c
00000140: 598b 67bc ddd2 b93c f6cf a73b be9f 58bb
00000150: 9f6a a93c e0fa a2bb af45 03bb 0a49 d13b
00000160: e7eb 96bc 85c9 2d3d 861a 873c a865 52bc
00000170: 5d96 023d 7cac 41bc be03 a63c 9150 fcbb
00000180: 7c76 8b3d 641d ba3c 1952 91bc 7361 7e3c

hidden2.weight f4 [50, 100]
0.08341937 -0.047638547 0.075434335 0.006141674 0.073139876 -0.015215112 0.044897594 -0.018039554
-0.053389158 0.038791813 -0.03870709 0.005676186 0.020466078 0.02317872 0.03931766 -0.013484017
-0.023427844 -0.055744816 0.015460539 0.03274455 0.075678065 0.012637773 0.039159086 0.06717868
0.039877597 -0.06293453 0.0063169003 0.046220183 -0.084537484 0.08342444 0.042249262 0.08028508
-0.0009194851 -0.0913296 0.03888035 0.0023723466 -0.07148827 0.075724915 -0.0651807 -0.08051317
0.09336603 -0.053641807 -0.028450286 0.06966653 0.03237631 0.05651777 0.031405684 -0.07647184
-0.0023404479 -0.061370876 -0.028730163 -0.043323334 -0.03751569 -0.09326209 0.009229899 -0.0655666
-0.031904686 0.05232965 -0.004797721 0.033395436 -0.007456839 -0.081942715 0.060892683 -0.0688781
-0.05263551 0.02916244 -0.09606406 -0.043643236 0.023337781 0.09798606 0.06788724 0.042343415
0.06528023 -0.03701036 0.038594186 0.08098561 0.09064609 -0.031808197 -0.020681953 -0.043268446
0.09816449 0.06473235 -0.003348589 -0.07793436 0.06775266 -0.021144977 0.00096289703 -0.06900591
0.053124182 -0.06734577 0.08712349 -0.09236809 0.020262612 0.08431407 -0.02977906 -0.0572979
-0.055048954 -0.0373991 0.05359098 -0.07985177 -0.027677696 0.04004887 0.035737358 -0.014429839
0.053566378 -0.07348448 0.018615933 -0.003161013 0.09468892 0.04014255 -0.01873134 -0.09680918
0.034517348 0.02642596 0.050817505 -0.0058351597 -0.0017192829 -0.08890236 -0.012226954 -0.022117944
-0.0006333873 0.02239919 0.036029458 -0.031848513 -0.09386388 -0.04377698 0.12261894 0.044437975
0.034219194 0.004750055 -0.104390875 -0.058542646 0.07388149 -0.055044796 0.035315428 0.064812236
-0.049878072 0.0050515463 -0.007285089 0.050771307 -0.081130855 -0.08446329 0.11755757 0.0081320135
0.03190331 -0.008083121 -0.08326118 0.040698633 -0.067524165 -0.07247131 -0.07913368 0.04444585
0.011054707 0.06872379 0.06243263 0.025412371 -0.059963074 0.06524911 -0.028595557 -0.039894227
-0.041167486 -0.07461832 -0.067501515 0.0063675223 0.022087896 0.053274736 -0.06792354 -0.05403886
0.016155515 0.091585204 0.06925595 0.06965542 -0.05759842 0.093952596 0.10001657 -0.14427887
-0.054068863 0.0654942 0.09576758 -0.06883865 -0.03828403 -0.044950727 -0.0678768 0.14504728
0.096565254 0.009388511 0.0775719 0.066272244 0.07981876 0.0625082 0.083961494 0.055897728
0.12576124 0.013189386 0.005687185 -0.012034234 -0.02739434 -0.014718082 0.010143593 0.08942617
0.035976887 -0.04016878 0.061324123 -0.14241159 -0.07661363 -0.02327441 0.028710501 0.04146184
0.05935167 0.14094722 -0.039212435 -0.15912093 0.04290822 -0.0271864 0.22698395 -0.19829322
-0.015669143 -0.065477304 -0.0014408759 -0.05231103 -0.18370382 -0.027398257 -0.0022334177 0.04103604
-0.108267054 -0.00011045376 0.20590053 0.03292202 -0.066224486 -0.086077526 -0.23614502 -0.07671314
0.027199518 -0.041415874 -0.010546565 0.035821117 0.0812971 0.14630124 -0.14869314 0.0250402
0.08888106 -0.076443896 0.110366285 0.082372904 0.17520167 -0.05182395 -0.18170698 0.12960234
0.044998318 0.04453316 0.055610117 0.17451003 0.014690718 0.009215311 -0.04362879 0.043790996
00000000: c6d7 aa3d a320 43bd 517d 9a3d 1840 c93b
00000010: 5cca 953d ce48 79bc 8ae6 373d b0c7 93bc
00000020: 97ae 5abd 2ae4 1e3d 538b 1ebd 4dff b93b
00000030: 7aa8 a73c 4de1 bd3c 8e0b 213d 11ec 5cbc
00000040: c0eb bfbc ad54 64bd 334e 7d3c 261f 063d
00000050: 1afd 9a3d a90e 4f3c 4765 203d fa94 893d
00000060: b156 233d d2e3 80bd 00fe ce3b 6051 3d3d
00000070: fd21 adbd 6fda aa3d 900d 2d3d 816c a43d
00000080: 9a09 71ba 030b bbbd 0041 1f3d 5f79 1b3b
00000090: 7168 92bd aa15 9b3d 757d 85bd 17e4 a4bd
000000a0: b036 bf3d 83b7 5bbd 9310 e9bc 53ad 8e3d
000000b0: 069d 043d 2d7f 673d 3fa3 003d 459d 9cbd
000000c0: 3362 19bb 0760 7bbd 855b ebbc cf73 31bd
000000d0: 0daa 19bd 3200 bfbd 0139 173c c847 86bd
000000e0: 7dae 02bd 9d57 563d 3336 9dbb a7c9 083d
000000f0: 8058 f4bb 95d1 a7bd 9b6a 793d f60f 8dbd
00000100: 5598 57bd 12e6 ee3c 3cbd c4bd 40c3 32bd
00000110: e02e bf3c eaac c83d 7708 8b3d 4a70 2d3d
00000120: a4b1 853d 2d98 17bd f014 1e3d c9db a53d
00000130: a8a4 b93d 5049 02bd 336d a9bc 413a 31bd
00000140: 770a c93d 6592 843d 0074 5bbb 0d9c 9fbd
00000150: e8c1 8a3d 3b38 adbc ed6a 7c3a f852 8dbd
00000160: be98 593d 94ec 89bd cd6d b23d 7b2b bdbd
00000170: c7fd a53c dbac ac3d 37f3 f3bc 34b1 6abd
00000180: 037b 61bd cc2f 19bd 3782 5b3d 5389 a3bd
00000190: 56bc e2bc 490a 243d 5661 123d 226b 6cbc
000001a0: 6b68 5b3d 087f 96bd 7180 983c ff28 4fbb
000001b0: 44ec c13d 846c 243d 7872 99bc e443 c6bd
000001c0: 1062 0d3d 417b d83c 0426 503d de34 bfbb
000001d0: 9059 e1ba 7112 b6bd 9053 48bc b130 b5bc
000001e0: e709 26ba 827e b73c a093 133d 9673 02bd
000001f0: b53b c0bd 7e4f 33bd a41f fb3d 9804 363d
00000200: 6d29 0c3d 59a6 9b3b e2ca d5bd 6aca 6fbd
00000210: 2e4f 973d a776 61bd e9a6 103d 47bc 843d
00000220: f34c 4cbd 7187 a53b c2b7 eebb 93f5 4f3d
00000230: ef27 a6bd 17fb acbd 06c2 f03d 233c 053c
00000240: 0cad 023d 116f 04bc d684 aabd 9cb3 263d
00000250: 1c4a 8abd d76b 94bd d710 a2bd da0c 363d
00000260: cd1e 353c 0fbf 8c3d 5cb9 7f3d 9b2d d03c
00000270: d79b 75bd 53a1 853d 3b41 eabc 2168 23bd
00000280: 3d9f 28bd 7dd1 98bd 3c3e 8abd a6a6 d03b
00000290: adf1 b43c 9c36 5a3d 7f1b 8bbd da57 5dbd
000002a0: 9258 843c 0691 bb3d 10d6 8d3d 80a7 8e3d
000002b0: 52ec 6bbd 386a c03d 7dd5 cc3d d7bd 13be
000002c0: 5077 5dbd d321 863d cb21 c43d 47fb 8cbd
000002d0: b7cf 1cbd 411e 38bd fe02 8bbd 4687 143e
000002e0: 01c4 c53d 45d2 193c 04de 9e3d beb9 873d
000002f0: 0578 a33d 4d04 803d 01f4 ab3d 04f5 643d
00000300: 8ec7 003e 4b18 583c 915b ba3b 3c2b 45bc
00000310: 186a e0bc 1c24 71bc 5031 263c 1125 b73d
00000320: 805c 133d 0588 24bd 012f 7b3d 58d4 11be
00000330: 9be7 9cbd faa9 bebc 4932 eb3c e4d3 293d
00000340: bd1a 733d 7854 103e 389d 20bd 99f0 22be
00000350: 88c0 2f3d 03b6 debc 7b6e 683e 610d 4bbe
00000360: 935c 80bc f718 86bd c6db bcba 1744 56bd
00000370: db1c 3cbe 4f72 e0bc 885e 12bb 6815 283d
00000380: 1ebb ddbd 69a3 e7b8 97d7 523e 3dd9 063d
00000390: b4a0 87bd 6a49 b0bd 00d0 71be c71b 9dbd
000003a0: 86d1 de3c b1a3 29bd 80cb 2cbc 2ab9 123d
000003b0: 187f a63d fecf 153e 0443 18be 1b21 cd3c
000003c0: 4607 b63d 9e8e 9cbd b807 e23d 20b3 a83d
000003d0: 1168 333e 5a45 54bd 6511 3abe 7ab6 043e
000003e0: 2850 383d 6768 363d 6fc7 633d c2b2 323e
000003f0: 56b1 703c d1fb 163c 1ab4 32bd 305e 333d

hidden2.bias f4 [50]
-0.03505867 0.0118970955 0.09268249 0.046885245 0.033548467 0.030718323 0.028453613 0.0018895691
-0.032861177 0.05873756 0.046073224 -0.0962464 -0.07903434 0.037990473 -0.07749417 0.05589245
-0.06053059 0.06583112 0.002210507 0.064595155 0.09370188 -0.09593979 0.0025778292 -0.094707154
-0.043529477 -0.057813775 0.017181195 0.042211574 0.031296197 0.060514454 0.03326926 0.09026234
0.044560265 -0.09971851 -0.0322405 0.015776703 0.046279263 0.01717312 0.10648294 -0.00010885969
0.024658108 -0.0996414 0.10785588 -0.05770142 -0.008340072 -0.019954773 0.0056736763 0.032361966
0.10996138 0.0071202265
00000000: ae99 0fbd 09ec 423c 51d0 bd3d be0a 403d
00000010: 1e6a 093d fea4 fb3c 8d17 e93c 6bab f73a
00000020: 7199 06bd cc96 703d 47b7 3c3d d51c c5bd
00000030: c2dc a1bd e69b 1b3d 43b5 9ebd 7bef 643d
00000040: edee 77bd 77d2 863d 27de 103b 774a 843d
00000050: c5e6 bf3d 157c c4bd ccf0 283b d3f5 c1bd
00000060: f74b 32bd 23ce 6cbd 94bf 8c3c 0be6 2c3d
00000070: 7130 003d 01de 773d 5945 083d 76db b83d
00000080: d384 363d 3839 ccbd 9d0e 04bd 253e 813c
00000090: 538f 3d3d a5ae 8c3c ba13 da3d 9a4b e4b8
000000a0: cdff c93c ca10 ccbd 8be3 dc3d 5358 6cbd
000000b0: cca4 08bc 3178 a3bc 3fea b93b fb8d 043d
000000c0: 6f33 e13d ca50 e93b

hidden3.weight f4 [25, 50]
0.1196436 0.06318386 -0.026785454 0.07442048 -0.051006407 -0.098867744 0.109747805 0.029258966
-0.068262 -0.052392613 0.035187747 -0.07247926 -0.09108828 -0.11056112 -0.118409336 0.11414104
-0.061041065 0.08466154 -0.050252248 -0.09374566 0.106623404 0.115202956 -0.091095984 -0.048706062
-0.06309992 0.120297395 -0.101405844 0.12847617 0.0180651 0.075136974 -0.034594912 -0.04652267
0.019614201 0.040886324 0.114216834 -0.13939615 -0.07621159 -0.0026220398 0.007321498 -0.08858416
0.020249438 0.11990058 -0.13183166 -0.04607669 -0.06585427 0.112121396 -0.102688 -0.097071685
-0.038822055 -0.08903246 -0.12291931 0.05294022 -0.03961065 -0.053581767 -0.12516865 -0.11194796
0.0346784 -0.12858109 0.06386781 0.1903033 0.09193288 -0.09907455 0.048381615 0.0933289
0.04439815 -0.071280174 0.13601446 0.08924297 -0.034093283 0.015839286 0.023927089 -0.071916014
-0.008267089 -0.10746328 0.066245474 0.097755894 -0.09181386 0.048998516 0.22559167 0.1287149
-0.101213776 -0.17620836 0.09647765 -0.10078981 -0.050526842 -0.058496684 -0.011768354 0.056987606
-0.039183047 0.046259616 0.0639276 0.05725565 0.14405656 0.034145035 0.112109795 -0.13559392
0.05525505 0.1270284 0.052337658 0.06276317 -0.055587128 0.046327196 0.13363467 0.123893246
0.07305634 0.042018402 -0.084598996 -0.090315476 -0.022544587 0.085550554 0.02024288 -0.059210796
0.04057619 0.13254133 0.07122863 -0.13397866 0.022968786 -0.109794535 -0.07841973 0.10926257
0.07930443 -0.0031209912 0.060811684 -0.040871724 -0.092908196 -0.05088593 0.10626128 -0.08267649
0.10936209 -0.053820398 -0.011695296 -0.07840437 -0.10859493 0.12736113 0.006228967 -0.04316579
-0.0468852 0.13122055 0.011534244 0.057726804 0.093225025 0.00064708904 -0.12727 -0.058342773
-0.10748359 0.007096889 -0.13698229 -0.022324208 0.10910655 0.0024094512 -0.0074164635 -0.07226131
0.1475699 -0.0111081395 0.08406903 0.15525885 0.094146855 -0.012219967 0.079741545 -0.11227971
-0.024080975 0.076719105 -0.13517934 -0.023256233 0.030604042 0.13285966 -0.011319379 0.09964319
5.8890914e-06 -0.14187373 0.030627247 0.12363856 0.045637384 0.010213075 -0.10703373 -0.034049563
0.10894157 -0.046930537 0.03594259 -0.08700003 -0.012165571 0.15395202 -0.005587625 -0.09767747
0.08743601 -0.027620422 0.005180893 -0.055094242 0.08221021 0.14699073 0.1271814 0.13226351
-0.123011746 -0.07151884 0.09913827 0.0001500547 -0.07299502 -0.062726 0.017900754 -0.052016947
0.010938693 0.16411018 0.24341574 -0.12894219 -0.08016684 0.073153995 0.15654132 0.042570114
-0.032684714 -0.04343845 -0.039751306 -0.123102136 -0.015978748 0.09725489 0.0850484 0.0690563
-0.114482634 0.2697393 -0.05158269 -0.15711111 0.01754892 0.03492074 0.049290378 0.100081556
-0.107120775 -0.020578166 -0.07458873 -0.12735343 0.043467414 -0.17169872 0.13964193 0.1391391
-0.09016753 -0.114698626 0.019724919 -0.07445513 -0.14567384 -0.13584892 0.20638481 0.09611103
0.08863382 0.06696772 -0.21695319 0.021536198 -0.052423123 -0.1297474 -0.080644056 -0.09769138
-0.059344873 0.040152714 0.12633951 0.07451363 -0.12672885 0.11294567 -0.06069676 0.07941097
00000000: b407 f53d 8a66 813d 2b6d dbbc c469 983d
00000010: 18ec 50bd 2c7b cabd 75c3 e03d 80b0 ef3c
00000020: f3cc 8bbd a399 56bd 0721 103d 0270 94bd
00000030: 7e8c babd de6d e2bd 9880 f2bd c7c2 e93d
00000040: 3206 7abd 0863 ad3d 4dd5 4dbd b9fd bfbd
00000050: 5f5d da3d 87ef eb3d 8890 babd 0280 47bd
00000060: 883a 81bd 7b5e f63d dead cfbd 428f 033e
00000070: 43fd 933c 6ae1 993d 65b3 0dbd 8e8e 3ebd
00000080: f6ad a03c 6b78 273d 84ea e93d ddbd 0ebe
00000090: d214 9cbd 87d6 2bbb 2de9 ef3b 9d6b b5bd
000000a0: 26e2 a53c 6f8e f53d e1fe 06be e9ba 3cbd
000000b0: 9ade 86bd e79f e53d 164e d2bd 85cd c6bd
000000c0: e003 1fbd a656 b6bd 1fbd fbbd d8d7 583d
000000d0: c73e 22bd 8e78 5bbd 362c 00be f944 e5bd
000000e0: f00a 0e3d c3aa 03be 20cd 823d dede 423e
000000f0: 4e47 bc3d 99e7 cabd cd2b 463d 3923 bf3d
00000100: d6da 353d 57fb 91bd 6047 0b3e 05c5 b63d
00000110: 66a5 0bbd 64c1 813c be02 c43c b448 93bd
00000120: af72 07bc b515 dcbd b5ab 873d 3e34 c83d
00000130: e808 bcbd abb2 483d 8101 673e d7cd 033e
00000140: 2b49 cfbd f76f 34be 1396 c53d e36a cebd
00000150: 3cf5 4ebd 389a 6fbd 0ed0 40bc d66b 693d
00000160: 677e 20bd b97a 3d3d 79ec 823d e784 6a3d
00000170: 9083 133e aadb 0b3d d299 e53d 22d9 0abe
00000180: 1f53 623d bc13 023e 0360 563d fa89 803d
00000190: 54af 63bd 96c1 3d3d 87d7 083e bebb fd3d
000001a0: 909e 953d 7d1b 2c3d 3d42 adbd 52f7 b8bd
000001b0: 6daf b8bc 2135 af3d 65d4 a53c 0587 72bd
000001c0: 3833 263d eab8 073e 51e0 913d b431 09be
000001d0: 0929 bc3c f5db e0bd 869a a0bd 0ec5 df3d
000001e0: 5c6a a23d 8b89 4cbb ac15 793d 1c69 27bd
000001f0: a746 bebd c46d 50bd 849f d93d 4b52 a9bd
00000200: 3bf9 df3d c772 5cbd a09d 3fbc 7892 a0bd
00000210: 0567 debd f56a 023e 5d1c cc3b 9dce 30bd
00000220: b20a 40bd ae5e 063e 20fa 3c3c f172 6c3d
00000230: c3ec be3d 69a1 293a 1153 02be d5f8 6ebd
00000240: 5b20 dcbd 058d e83b 1645 0cbe 42e1 b6bc
00000250: 4173 df3d e2e7 1d3b ce05 f3bb bdfd 93bd
00000260: 901c 173e eafe 35bc 622c ac3d 2dfc 1e3e
00000270: 11d0 c03d 4236 48bc 894f a33d e8f2 e5bd
00000280: 7745 c5bc e81e 9d3d 746c 0abe db83 bebc
00000290: 54b5 fa3c 5d0c 083e eb74 39bc bb11 cc3d
000002a0: e99a c536 5947 11be fee5 fa3c 3736 fd3d
000002b0: 44ee 3a3d be54 273c 8034 dbbd 8e77 0bbd
000002c0: c21c df3d 3c3a 40bd 8a38 133d 122d b2bd
000002d0: 1a52 47bc 99a5 1d3e 6518 b7bb 200b c8bd
000002e0: a711 b33d 3944 e2bc 7bc4 a93b 80aa 61bd
000002f0: d45d a83d bd84 163e d73b 023e 1670 073e
00000300: 95ed fbbd 7878 92bd 0109 cb3d 0058 1d39
00000310: 6a7e 95bd 7d76 80bd 9aa4 923c b90f 55bd
00000320: 3438 333c 800c 283e fa41 793e 6c09 04be
00000330: 832e a4bd c3d1 953d 5e4c 203e 005e 2e3d
00000340: 68e0 05bd 84ec 31bd 44d2 22bd f91c fcbd
00000350: dde5 82bc 922d c73d db2d ae3d 646d 8d3d
00000360: df75 eabd 451b 8a3e 5f48 53bd bce1 20be
00000370: c1c2 8f3c 0d09 0f3d b5e4 493d 8ff7 cc3d
00000380: 2362 dbbd 8b93 a8bc fac1 98bd f068 02be
00000390: e30a 323d cad1 2fbe 4bfe 0e3e 7b7a 0e3e
000003a0: c1a9 b8bd 1de7 eabd 2796 a13c ee7b 98bd
000003b0: 862b 15be fb1b 0bbe 8a56 533e dcd5 c43d
000003c0: a685 b53d 5f26 893d fa28 5ebe ae6c b03c
000003d0: a1b9 56bd 81dc 04be b628 a5bd 6b12 c8bd
000003e0: 9c13 73bd 2c77 243d 255f 013e 9a9a 983d
000003f0: 35c5 01be 0f50 e73d 2a9d 78bd 38a2 a23d

hidden3.bias f4 [25]
-0.035905626 -0.045007188 -0.13511375 0.02181372 0.016301075 -0.0869285 -0.072696336 -0.069741525
-0.007205517 -0.016764602 0.08324522 -0.09141069 0.17644481 0.07489663 -0.10584913 -0.12253707
-0.098546065 -0.020071223 -0.06610383 -0.13268091 0.4127747 -0.03315853 -0.13151667 -0.043259308
-0.072430275
00000000: c711 13bd 7559 38bd 425b 0abe b0b2 b23c
00000010: d589 853c 9207 b2bd d1e1 94bd a5d4 8ebd
00000020: 421c ecbb eb55 89bc 787c aa3d 8735 bbbd
00000030: f3ad 343e 6863 993d 6ec7 d8bd b7f4 fabd
00000040: 85d2 c9bd 686c a4bc 7261 87bd 81dd 07be
00000050: 3557 d33e 3dd1 07bd 4eac 06be ac30 31bd
00000060: 5356 94bd

output.weight f4 [1, 25]
-0.12332606 0.29507846 0.1853268 -0.08828008 -0.14560996 -0.18520539 -0.04059398 -0.072669625
-0.13979596 0.010986472 0.47187364 -0.12884386 0.106498025 0.053099975 0.088613585 -0.27803722
0.11013301 -0.15138023 0.07629807 0.16875938 0.29968932 -0.17687319 -0.15686475 0.19527364
-0.16328569
00000000: 6092 fcbd 8614 973e 4fc6 3d3e 30cc b4bd
00000010: c71a 15be 7ba6 3dbe e045 26bd d0d3 94bd
00000020: ac26 0fbe 9a00 343c 6c99 f13e a5ef 03be
00000030: a31b da3d 5c7f 593d 0a7b b53d e55a 8ebe
00000040: 6a8d e13d 6b03 1bbe 2a42 9c3d 42cf 2c3e
00000050: e170 993e 3f1e 35be 27a1 20be d0f5 473e
00000060: 5d34 27be
